eegmodels/chb01weights/bilstm_weights.pth (torch, 100597 bytes, 10 tensors)

bilstm.weight_ih_l0 f4 [80, 128]
00000000: 282f 7d3d 04dc 80be 01fa 273c 1638 9cbd
00000010: 7210 423d 92ed 4ebc 7c18 20be c54f 153e
00000020: dc22 293e d2b0 96bc 2ee3 f8bd 9749 0f3e
00000030: 4b6c 03be 4860 203e f630 543e 6e2a 03be
00000040: b807 10be ca63 29be b51e e93d b35f ef3c
00000050: c928 d83d f48f 2a3e 1dae 18be 2180 40be
00000060: ea15 8bbd 1f3c 3dbe 7c96 633e 31b9 d9bd
00000070: 4e2d 023e 528c 423d 3ca3 4a3e dac1 30be
00000080: 0576 1fbd c4ee 47be 2bba 5f3e 5636 eabd
00000090: 5a2c 583b 963e 31bd f925 a53c 1ba8 debd
000000a0: 6ce1 d03d 6506 15be b44f f83d 688d 50be
000000b0: 19d7 a9bd fa32 343d ca60 0a3c 189e d03d
000000c0: db04 a1bd 0bca 343e 266e 26be fa7c d3bd
000000d0: b528 163e b2bc d8bd 24b5 9ebd 2b94 163b
000000e0: 333e acbd eafe 15be 68ae 2d3d 9be8 1ebd
000000f0: 19f7 023e dc7a b3bd 7b1e 2dbe a60e ad3d
00000100: 334b 22be 8b83 7fbe a276 a03d ef0d 173d
00000110: 78a6 e73d 958f 8fbd 403c 2cbe 5098 1fbe
00000120: 85a2 2cbd 0554 0c3e c488 4f3c 8d57 c6bc
00000130: 4cfc c43d 07dc f8bb 4ca9 6abd 8489 403e
00000140: 22ce 21be 1c20 09be 6f03 1c3e 6205 4f3d
00000150: 762f 2d3e d95a 403e 41bb e5bd 871e 173d
00000160: 6a3c cf3c 12fa e03d a8b1 093e 5e23 883d
00000170: e968 d9bc 7790 ec3d 81a7 d73d 4408 9fbd
00000180: 3b66 eb3b bf96 253d f8ad 143e a191 793e
00000190: 1cb1 083e ad1d a73d 3aca 81bc c286 3ebe
000001a0: b727 293d 5ec5 e93d 4568 41bd ab89 0cbe
000001b0: 92dd 27be c325 a0bd 707f 6cbe 9bd3 003e
000001c0: fc12 c1bd 235b 54bc d722 96bd dce6 dd3d
000001d0: 7391 e83d e8ec 21be 0cb6 423d 5390 02be
000001e0: 3dd3 2cbe ccee 9dbc 90ec 83be 4317 873c
000001f0: 06d8 ae3d 7924 c73d cf37 1bbc dcbd 97bb
00000200: 6872 1e3e 27aa b33b ce2c f0bb e894 9f3d
00000210: d545 b93d 2fb2 e93c 4c91 3ebe ed46 333e
00000220: 8929 893d 5b1a d9bd df63 8abd 6415 04bc
00000230: 1460 29bd 5c0d f8bd fbc8 b93c f4b2 133b
00000240: 427b 7b3b 1c7c 1abe f6b5 283e eb0d 773d
00000250: c656 3dbe 2096 e23d 9b10 303e 4d25 49be
00000260: 6e21 14be 8ba0 853d 7936 0ebd 2ff7 db3d
00000270: 9f4c 2a3e 27e3 563e 709d 3bbe 5f50 86bd
00000280: 14ef fb3c 44d2 0d3d 3c0f 38be 7217 3abe
00000290: 49ae b73c 878f 503e e1ef e93d bc8f a23d
000002a0: 44d9 46be 8fcc 2ebd 2165 5abe 953a 3fbc
000002b0: 7851 123e b4ba 183e 0a1b edbd 2923 67bd
000002c0: bd9c ad3d af0f 36bd c397 25be c3d4 ac3d
000002d0: e6d9 71be f747 45bd 4ff9 0cbe 6158 53be
000002e0: 3f44 49bd 45aa 843d 25ee 9cbd 1389 1cbd
000002f0: af3f dd3c d5c2 6bbe 055f c8bd 4e7a 9abc
00000300: eb31 65bc 0ca9 1f3d 2d8e cf3d da3c c4bc
00000310: 7930 c0bd 8054 183e a313 523e 9da2 963d
00000320: e645 263e 430a 5b3e 3852 af3d 4b98 25be
00000330: 2694 babd 606b d63c 7749 0abe 002b c93c
00000340: cfa0 423e 42fc afbd 8495 42be 8512 b6bd
00000350: 447e 5cbd 3f95 b4bc e2e7 d13d 7bac df3d
00000360: c88c adbc dac5 683e fb1a 2dbe a7bd 8a3d
00000370: 22e9 a0bd 1ba3 ec3c 0f96 8b3d d642 c3bd
00000380: 7095 8b3d 77da 8d3d df85 ccbd 8572 853d
00000390: 7e5e 0a3e 6c53 503e 8de7 303e cfdf 87bd
000003a0: 7ab3 a3bd c157 843c 4c89 32be ef5e 0fbe
000003b0: 78ff 8ebd a404 1dbe e3b4 013d 2629 223e
000003c0: 5db2 99bd 1dbe 0dbe 7cbb 32bc ea22 a9bd
000003d0: 442b be3d 3b96 3e3e 4ee3 5bbe da49 babd
000003e0: 7239 7ebd a9cd 4fbe 8b0e 2cbe facf 6cbe
000003f0: da44 4a3d 30e7 3fbe 4acc 333d 7dca 9c3c
0.06181255 -0.2516786 0.010252477 -0.07627885 0.047378965 -0.012629883 -0.1563434 0.14581211
0.16517204 -0.018394861 -0.12152706 0.13992916 -0.12834279 0.15661728 0.20721802 -0.12809154
-0.14065444 -0.16541973 0.1138281 0.029220438 0.10554654 0.16656476 -0.14910169 -0.18798877
-0.06791289 -0.18479966 0.22225374 -0.106310256 0.12712595 0.0474971 0.19788831 -0.17261449
-0.03893091 -0.19524676 0.21848361 -0.11436145 0.003298542 -0.043272577 0.020159708 -0.10871907
0.10199246 -0.1455322 0.12124577 -0.20366442 -0.0829298 0.043993928 0.008445928 0.10186404
-0.07862254 0.17655198 -0.16252956 -0.10326572 0.14663966 -0.10582866 -0.077493936 0.0022976499
-0.08410301 -0.14648023 0.042402655 -0.03879605 0.12789573 -0.08763668 -0.16906159 0.084500596
-0.15848999 -0.24952523 0.078351274 0.036878522 0.11311048 -0.07009808 -0.16819859 -0.15585446
-0.04214718 0.13703926 0.012666885 -0.02421167 0.09618434 -0.0075945887 -0.05729036 0.18802458
-0.1580129 -0.13391155 0.15235685 0.050542243 0.16912636 0.18784656 -0.112173565 0.036894348
0.025297362 0.10985197 0.13446677 0.06647371 -0.026539283 0.11550992 0.10529996 -0.077652484
0.0071838177 0.040426966 0.14519489 0.2437196 0.13348812 0.08159957 -0.0158435 -0.18606094
0.04129764 0.11414598 -0.04721858 -0.13724391 -0.16393116 -0.078197025 -0.23095489 0.12580721
-0.09427449 -0.012961182 -0.07330864 0.108350486 0.11355867 -0.15813029 0.047536895 -0.12750368
-0.16877456 -0.019278906 -0.2576642 0.016490584 0.08537297 0.097237535 -0.009473755 -0.0046307873
0.1547333 0.00548293 -0.00732956 0.077920735 0.090465225 0.028527347 -0.18610114 0.17507525
0.06697375 -0.1060073 -0.0675733 -0.008061741 -0.041351393 -0.12111923 0.022678843 0.0022537084
0.0038373028 -0.15086406 0.16475663 0.060316008 -0.18490133 0.1106379 0.17193834 -0.19643135
-0.14465877 0.06524762 -0.034719918 0.10740506 0.16630791 0.20985089 -0.18321776 -0.06558298
0.03075365 0.034624353 -0.17974561 -0.18173006 0.022421973 0.20367251 0.114227064 0.079375714
-0.19418818 -0.04267555 -0.2132764 -0.011671682 0.1428889 0.14914972 -0.11577423 -0.056430016
0.08477161 -0.04444855 -0.16171174 0.084390186 -0.23618278 -0.048164334 -0.13766979 -0.20639183
-0.04913735 0.06477789 -0.0766261 -0.03821666 0.027007906 -0.23023541 -0.097837485 -0.018857148
-0.013988952 0.038979575 0.1013454 -0.023954798 -0.093842454 0.14875984 0.20515303 0.07355235
0.16237602 0.21390633 0.08560604 -0.16171376 -0.09110288 0.026174247 -0.13504587 0.024556637
0.19006656 -0.08593036 -0.19002348 -0.08890251 -0.053831354 -0.022043822 0.10249306 0.1092157
-0.021185294 0.22731724 -0.16904823 0.067744546 -0.078569666 0.028886368 0.06815731 -0.09534232
0.06815612 0.069264345 -0.099864714 0.065159835 0.13512608 0.20344323 0.1727583 -0.06634485
-0.07993217 0.016155126 -0.17435187 -0.14001058 -0.069823205 -0.15333802 0.031666648 0.1583601
-0.07504723 -0.13842054 -0.010908958 -0.082586125 0.09285596 0.18611996 -0.21473429 -0.09096117
-0.062066503 -0.20293297 -0.16802423 -0.23126212 0.04938207 -0.18740535 0.043895997 0.019139523

bilstm.weight_hh_l0 f4 [80, 20]
00000000: b60f 41be 3f33 0ebe 1f21 6b3d 805f 543d
00000010: 9065 3dbe c716 2a3e 9670 29be 0a7d a5bd
00000020: ce76 083e 2eb7 cebd 4e76 51bd e7f9 0f3e
00000030: 46ac 143c dd95 e0bd a015 893c edc4 1f3e
00000040: a3b7 e2bd 5045 26bd 7537 173d 3d7b 133e
00000050: 5be6 88bd 8bcb bfbd 5ed2 fa3d 9642 4b3e
00000060: 3b68 493e e895 0e3e d1bd 0ebe 9ab1 56bd
00000070: 8b76 153e 5632 47be e2dd 193e 5f5a fdbd
00000080: b110 1abe 00bd dbbd 858c 6d3d f6f1 c03d
00000090: c057 c13c 589b 47be bf60 fc3d 10af b23d
000000a0: e522 e03c e823 b3bd 9853 23bd a5fa 14be
000000b0: 99a6 9d3d 7972 903c 1266 42be 91d3 d3bc
000000c0: 394f 08be c7b7 b5bd b46e 0a3d d1a0 2a3e
000000d0: 143e d33d 9b69 513d 409d af3d a9e9 c83c
000000e0: 0f78 57bd bc1a fb3d 014c eb3d 554e 623d
000000f0: c68e 193e fcf8 1b3d 2223 57be 0d38 393e
00000100: 5b61 493d 7e45 ed3d f831 23be 40b2 45be
00000110: 36f4 173e 9a9b 4639 50a6 483e f83e b93d
00000120: 38d5 fabc a76d 37be d400 563e 7299 e43c
00000130: 09a7 0c3c cb85 54bd 8d1a 793e 795a 25be
00000140: 94ff a43d 3f0e 86bd f839 303e 70d3 b6bd
00000150: 7ec4 e23c 46b6 3bbe 6be4 d23c 4cab 69bd
00000160: ec47 5a3e ccf4 2a3e a8ab 0e3c efc6 64be
00000170: 3410 10be 2085 1c3e fed4 2fbe 17ff 743e
00000180: 8ab3 d03d 2360 17bd 8073 833d 7ef2 4b3e
00000190: b1f4 11be a8ad 3ebd fab7 fdbb d403 653e
000001a0: 4ef1 ddbd 1589 38be af8b f13d 00e9 c33d
000001b0: 0b48 0abc 433f 8fbd 7734 8ebd c95d 2ebe
000001c0: 4b71 85bd 21b8 4a3e 3e17 333e a058 263e
000001d0: cda1 54be 6676 fe3d 40a0 003e 0394 283d
000001e0: 2a3f 633e e138 013d a25a 4a3d 269b 4c3e
000001f0: 4f75 aabd ff3f ee3d 3dbb a9bc f948 5dbe
00000200: 7e90 b83d 2e38 adbd 5bf0 ed3c a247 923d
00000210: 76f5 f13d 56fc 1f3e 94c6 1e3e 61fc 49be
00000220: aafa 22bc 147a 353e 81d0 d83c 5e04 56be
00000230: 934a 0cbd f838 2f3e fb84 8d3d 557c c13d
00000240: 7a3c 2a3e 7a84 153e 889d 7dbd aa48 f3bd
00000250: e96f 06be 04c1 2fbe 9bfe 1ebe a0c1 02be
00000260: d2fd 533e db46 d8bd 861e 133d 73d5 0dbe
00000270: df42 dc3d 641e 953d a754 3f3e fa6e 3d3e
00000280: f3d2 46be 3b9a 4d3e c5d6 b93c b8b0 b53d
00000290: 05e2 29bc 82ea 033c ce8a a33c bdda 893d
000002a0: e09a 16bc e90a 7bbd cb10 1a3e b110 20be
000002b0: 1893 0a3e 5cf9 c43c b7b4 463e 6701 fc3d
000002c0: 13eb 05be 2523 39be 7fd5 303e e2fc f6bd
000002d0: 7b68 753e a8eb 9d3d b8d1 303e 964e 243e
000002e0: 56b0 02be 1001 f73d d329 c0bd 1b8b 183c
000002f0: c3d3 b2bd 5196 f7bc 80dd 043e 67bd 6ebd
00000300: f30b 2e3e f0ca 72be 4290 d93d 6921 ec3b
00000310: 03ef 813e c665 1a3e 1043 c6ba e138 acbd
00000320: 6b3c 0b3e 4bcd 633e 677d 3e3e 3f42 f13c
00000330: 1b84 12bd a6e6 cabb 9a79 2abe f1ec 42be
00000340: 8741 393e 8012 793e 242c 5d3d a533 cd3d
00000350: bcb1 59bd 0957 4f3e feca 36be 29f8 02be
00000360: 478e 313e 740c 48be 03f5 363d 29e1 1cbe
00000370: 516e 10be 707c b13d 743c 4dbe d3ab 5e3e
00000380: a6ef 3b3e 4e5a ffbd 5673 a53d cf27 72be
00000390: 9d14 24be 15af 08be 98c7 71be c429 f2bc
000003a0: 4f8b 833d 3571 0bbe cd13 023d 0c48 0dbe
000003b0: 1507 683e 278f 47be b9fe afbd a8ed d13c
000003c0: f50c dd3d 61cd 19be 06e3 35be 5b26 f73c
000003d0: 68d8 6fbe cde9 8e3d dda4 21be f0f3 4dbe
000003e0: 22b7 f33d 1198 203d 9a9d ecbd 5425 47bd
000003f0: 49d8 cabd 132f 2e3e 8e59 233e 6dc0 3abb
-0.1885365 -0.13886736 0.057404634 0.05184889 -0.18495774 0.16610251 -0.16546854 -0.0808049
0.1332657 -0.100935325 -0.051138215 0.14060174 0.009074276 -0.10966084 0.016733944 0.15602465
-0.11070182 -0.040593445 0.036918122 0.1440248 -0.06684562 -0.093649946 0.122471556 0.1984962
0.19668667 0.13924372 -0.13939597 -0.052415468 0.14596002 -0.19452795 0.15026048 -0.123707525
-0.1504543 -0.10729408 0.057995338 0.094211504 0.023601413 -0.19492853 0.1232314 0.08724797
0.027360389 -0.08747083 -0.039874643 -0.14548738 0.076977916 0.01763271 -0.18984249 -0.025857719
-0.13311471 -0.08872943 0.03379698 0.16662909 0.10314575 0.051126104 0.08574915 0.02452548
-0.05260473 0.122609586 0.11489106 0.055250484 0.1499587 0.038079247 -0.21009496 0.18087788
0.04916511 0.1158552 -0.1593703 -0.19306278 0.14839253 0.00018940718 0.19594693 0.090452135
-0.030619249 -0.17912923 0.20898753 0.0279052 0.008584746 -0.051885407 0.24326535 -0.16147794
0.0805656 -0.06545686 0.17209613 -0.08927047 0.027681585 -0.1833125 0.025743684 -0.057048127
0.21316499 0.16694945 0.008707918 -0.22341512 -0.14068681 0.15285158 -0.17171094 0.23925434
0.10190494 -0.036956917 0.06418514 0.19916722 -0.14253499 -0.04655233 -0.007742879 0.22364742
-0.10837041 -0.18021043 0.11794221 0.095659256 -0.008440028 -0.06994488 -0.069436006 -0.17027964
-0.065157495 0.19796802 0.17489335 0.16244745 -0.20764847 0.124249265 0.1256113 0.04115678
0.22192064 0.031548385 0.04940284 0.1998106 -0.08323156 0.116333 -0.020719165 -0.21609868
0.09011935 -0.08457981 0.029045274 0.07142569 0.11814396 0.15623602 0.15505439 -0.19725181
-0.009947458 0.1772235 0.02646661 -0.20900103 -0.034250807 0.17111576 0.0691013 0.094475426
0.16624632 0.14601317 -0.06191781 -0.11879094 -0.13128628 -0.17163473 -0.15526812 -0.12769175
0.20702294 -0.105603896 0.03591778 -0.13850956 0.10754942 0.07281187 0.18684636 0.18499365
-0.19416408 0.20078366 0.022685418 0.08871597 -0.010368829 0.0080515165 0.019963648 0.06731174
-0.0091921985 -0.0612897 0.15045469 -0.15631367 0.13532674 0.024044685 0.19404875 0.12304955
-0.13077955 -0.18079813 0.17268942 -0.12059952 0.23965637 0.077109635 0.17267501 0.16045603
-0.1276258 0.120607495 -0.09382977 0.009310509 -0.087317966 -0.030223044 0.1297512 -0.058286097
0.16996746 -0.23710227 0.10623218 0.0072061312 0.25377664 0.15077886 -0.0015126187 -0.08409286
0.13597266 0.22246282 0.18602525 0.029450534 -0.035770517 -0.006192046 -0.1664795 -0.19035698
0.18091403 0.24323463 0.053997174 0.10019616 -0.053148016 0.20248045 -0.17850873 -0.12789978
0.17339431 -0.19536 0.044667255 -0.15320267 -0.14104582 0.08666313 -0.20042592 0.21745233
0.18353137 -0.12468396 0.08078639 -0.23647998 -0.16023488 -0.13348038 -0.23611295 -0.029560931
0.064230554 -0.13617404 0.031757165 -0.13797015 0.22658952 -0.19488202 -0.08593506 0.025626019
0.10793487 -0.15019752 -0.17762384 0.030169657 -0.23422396 0.06978188 -0.15785547 -0.20112586
0.11900164 0.03920752 -0.115534976 -0.048619583 -0.09904534 0.17010145 0.15952131 -0.0028496042

bilstm.bias_ih_l0 f4 [80]
00000000: 3a72 423e 282a 45be fb5f 463d 960f 0dbe
00000010: 7bb3 a93c 8bea 3cbe a9ac 083c ad20 df3b
00000020: 10c9 5ebd c261 c23d a826 0f3c e318 0b3e
00000030: 1244 47be 1704 5fbd 0c8f 603e 9335 24be
00000040: 9bfb 54bc d3ac 06bd 9a95 0c3e d82a f3bd
00000050: e459 e3bc 25c7 09be ebfb 033d 0cb2 363e
00000060: 9161 febd eeb4 023e 57a4 45be 1c3a 2bbe
00000070: 82f7 de3d 485b 5c3d 9008 a93d 346d 1cbd
00000080: 808e 5e3e 2b96 29be 159c 893d 4d00 9c3d
00000090: 198c 60bd 659f 10be cf94 9d3a d8dc d0bd
000000a0: 385a 6a3d 1fc6 353d c537 d23c cf65 e13d
000000b0: 8d35 a7bd f815 b23d 5f03 10be 6490 413e
000000c0: 4693 583c 6d27 203e 0445 863d dab2 c4bd
000000d0: 3e6b 68bc 2b37 5abe cb22 a4bd 19cf 103e
000000e0: e657 70bd 872a 083e b633 5e3e 2cef 283e
000000f0: 1e22 06be 0106 243e 0878 6e3e 4eb3 943d
00000100: f069 eebb 2c35 2f3e b361 743e 49a4 7e3e
00000110: adb4 89bd 4805 3dbc 593a 213d 5c17 cbbc
00000120: fa5f 943d 8160 893d 67d7 23bd c19b c53d
00000130: 23dd 243e e0ee 583e c9e2 2dbe 40c1 0f3e
0.18988886 -0.19254363 0.048431378 -0.13775477 0.020715466 -0.18448846 0.008341947 0.006809315
-0.054390967 0.09491302 0.008737244 0.13583712 -0.1945956 -0.05444726 0.21929568 -0.16036062
-0.012999441 -0.03287966 0.13728943 -0.11873406 -0.027752824 -0.13454874 0.03222267 0.17841357
-0.12420953 0.12764332 -0.19300972 -0.16721386 0.10887052 0.05379799 0.08253586 -0.03819008
0.21734047 -0.16561191 0.067192234 0.07617245 -0.054821108 -0.14123304 0.0012022498 -0.101983726
0.057214946 0.044378396 0.025661359 0.110057466 -0.08164511 0.086955965 -0.14063786 0.18902737
0.0132187065 0.1564004 0.065561324 -0.09604426 -0.014185725 -0.21310107 -0.08014449 0.14141501
-0.058677576 0.13297473 0.21699414 0.16497487 -0.13098952 0.16017915 0.23287976 0.07260762
-0.0072758123 0.17110127 0.23865394 0.24867357 -0.06723914 -0.011536904 0.039362285 -0.024791412
0.072448686 0.0670786 -0.040000346 0.09648848 0.16099982 0.21184874 -0.16981043 0.14038563

bilstm.bias_hh_l0 f4 [80]
00000000: 86f2 6c3e 19d4 bc3d 183e 25be 8887 1b3e
00000010: cd0c bf3c a162 b83d 36bf 2abd 2a51 f8bd
00000020: 1aae 423e be31 c33d 0bb1 123e 2661 9bbd
00000030: 2017 3b3e 58a6 73bc bc75 313e e16b 29be
00000040: d281 1cbe b106 1ebe 2ae8 103e 7a17 2b3e
00000050: d3f6 27be bae0 aabd f719 273e 8867 d93d
00000060: d4ac f4bc 2fa8 eebd cf5c 5f3e f1df 233d
00000070: 8df5 f53b f565 a9bd c492 00be 8539 25be
00000080: a0dd 20be c186 af3d 8209 16bd 6a96 14be
00000090: 16cd 1bbe a840 bb3d fed8 573e 1d92 17be
000000a0: 891c 06be e22e 03be a46c e73a 60f9 5e3d
000000b0: c368 ee3c 07bc 36bd 00dc 82bd fc16 3ebe
000000c0: 7dee 403e c24f 523d a899 2f3d 9b13 45be
000000d0: 6081 563e 8f2b 433e 5f59 2cbe 782a c63d
000000e0: 4147 e1bd 1950 1ebe 0272 9c3d e6f9 0a3e
000000f0: 20c1 0e3e 3903 81bd 0bbf 913d 5146 60bc
00000100: 05c6 623e 997c 663d 897a 4b3e 6607 4d3e
00000110: 310a a2bd c7f8 883d c9f8 47bc 58b7 debd
00000120: afb8 d1bc 8963 a93d 33f4 fcbc 67ed 333e
00000130: ad35 7d3e 38e7 37be 57b2 123d 29ad 593d
0.2313939 0.09220142 -0.16136968 0.1518842 0.023321534 0.09003187 -0.04168626 -0.12124856
0.19011727 0.09530972 0.14325349 -0.07586889 0.1827054 -0.014871202 0.17330068 -0.16545059
-0.15283898 -0.1543224 0.14151064 0.16708174 -0.1640275 -0.083436444 0.16318499 0.1061545
-0.029867567 -0.11653172 0.21812747 0.04000849 0.0075060786 -0.082714 -0.12555987 -0.16135223
-0.15709543 0.08570624 -0.03663016 -0.14510503 -0.15214953 0.091431916 0.2107887 -0.14801832
-0.13096823 -0.12810853 0.0017656279 0.05443704 0.029102689 -0.04461291 -0.06389618 -0.18563455
0.18840976 0.051345594 0.042871147 -0.1924576 0.2094779 0.19059585 -0.16830967 0.09676069
-0.10999919 -0.15460242 0.07638933 0.13571891 0.13940859 -0.06299443 0.07116517 -0.01368864
0.22145851 0.05627117 0.19870962 0.20022354 -0.079121 0.066880755 -0.012205311 -0.10874814
-0.02560076 0.08270938 -0.030878162 0.1757103 0.24727507 -0.17959297 0.03581461 0.053143654

bilstm.weight_ih_l0_reverse f4 [80, 128]
00000000: e73e 333d a6cc 48bc c098 18be 4f61 5d3c
00000010: 6474 323d 7cf0 c83c dfec eb3d 1429 9dbc
00000020: 3e9d 17be bccf 08be 4a39 213d 920d 853d
00000030: 2f02 88be 5dcf a93d 44d1 36be 6b9f fdbd
00000040: c9b7 1fbe 7c3c 733e 1a12 d3bc 8639 043e
00000050: d00f ba3d 1700 ce3d 05cd cd3d b0c7 73be
00000060: 2a07 6b3e 0733 f13d abe1 063e 0a7b 19be
00000070: edaf 5bbe 0ddf 0dbe f691 833c 6be7 a2bd
00000080: 57a2 6d3e 9869 14bd 2fad 63bd e1ac 9dbd
00000090: ea23 c4bc 7c94 d5bc 67a9 8bbd 91a8 27be
000000a0: a915 583c 7a20 1ebe 7a55 d4bd 6ae2 2b3e
000000b0: 6108 06be 418b 053e b2c1 ecbb ba84 00be
000000c0: a3b4 06bc 8926 2a3e 973c 4bbe 6b42 3a3e
000000d0: dc1b 51be 60ec abbd 5184 233d 455a 263e
000000e0: 4fec 24be e53a 433e 940d 963e db4a 033e
000000f0: 24cc 503d 4af1 0ebe 51e8 083e 23ef 503e
00000100: d5d8 bdbc 4ace 46be 9649 e2bd 8ccc c4bd
00000110: e19a a33d 2aaa 3ebd c586 1cbe 8b42 09be
00000120: 91c8 74be 3573 673d 3a08 53be 1573 163d
00000130: a8ba 56be 6937 11bd eebb 4abc dabd 08be
00000140: e073 883d 5cba a4bd 449f 3d3d 1628 0cbd
00000150: 3866 c1bd 1f9c aebd beb8 78be 8a01 30be
00000160: 0d8f 313e 77ac 1dbe 5b7a 68be 0d02 613d
00000170: 117f 2bbd d7ec 883c 337e 7fbd 719b 31be
00000180: 1007 19bb f181 173e 0f17 96bd bef6 2b3e
00000190: 3ab7 aebd 0f34 443e 467d 55be ef6f 9cbd
000001a0: b92d 133e 049b f13d 6e08 9f3d c52b 4ebe
000001b0: fc78 533d 1b96 3fbe ca40 3d3e dfe2 a2bd
000001c0: 006f 01be e8e6 b03d d895 a53b c138 5f3d
000001d0: 8f0c 9c3d 4142 de3d a74f 363d 52c8 b83d
000001e0: 9c92 30be a8eb 3f3e ff50 bdbd 5d3a b5bd
000001f0: 6b09 7abd cd4d 08be 641b 14be 4789 44be
00000200: 42c4 f7bd 1153 b63c 3795 c73c bfcd 3d3e
00000210: 4106 593e 7f1d febd 189e 28be 3324 7ebd
00000220: 1741 9dbd 8aeb 73bd 8049 333e 96c2 d5bd
00000230: e68e 213e 2af2 60bd 4b4b 16be 658f 9b3c
00000240: 8d85 33be 7218 20bd 3740 5abd 4d54 3e3e
00000250: 991b 8a3d 1836 203e 54ba 4ebd 9226 0b3e
00000260: d324 00bb 3813 d0bd 7609 5f3e 2d85 9dbd
00000270: 998c 85be 141f d3bc e631 6c3c 2a84 6abe
00000280: b3b1 873e 1a43 f0bc f899 163c 5c7f 7fbe
00000290: 704f a83c 5864 103e 78a9 78be 7cd0 7c3c
000002a0: b758 f43c dfeb a33d fdc0 81be 2eb8 e2bd
000002b0: bf14 c93d ae80 773e bc09 67bd c5af 31be
000002c0: 163e 95bc 9f9d 853e 8139 963d 4991 ddbc
000002d0: 3128 9cbc d4fb f53b 1192 1a3b d2f7 04be
000002e0: cccc 613d ffc1 49be c33b 8e3d af8b 5d3e
000002f0: b3c4 483e 74f5 ed3c 5199 0c3e 5ca9 273e
00000300: 2113 28be 87c1 37be 386b 073e d8dd 5a3d
00000310: ae38 13be 2c2a 07be 59af f7bd ee6e 12bd
00000320: 2bba 74be 0d47 a4bb b12b 29bd 6e59 55be
00000330: a5fc 2e3d 980e eabd 5aee 2dbe 104f 613d
00000340: 53cf a4bd 1857 253e afbd 813d dc00 acbb
00000350: 82b9 59bc ae99 513e e12d 87bc 1d14 593c
00000360: bad6 1d3e 996b 623e 5083 2a3d ef6a d6bd
00000370: 77fb 87bd cc70 afbd 0030 a8bd 0fd5 1c3e
00000380: 34d4 b23d 7952 863e fc8f ef3d 9291 a83d
00000390: 2031 0b3e e54a 84bd c6b8 4cbe 842e 70bc
000003a0: a03f 4d3e 9909 fa3d 703e 0c3e fcee 3abe
000003b0: 48de e73d b9c5 05be 994e 91bc 9bf9 11be
000003c0: 82a9 1dbc e9ff da3c e78e 15be bbb6 613c
000003d0: 8113 d33b 0724 033e d57e 87bd 1299 073d
000003e0: c427 ac3d 00b1 043c a494 adbb 59e6 a5bd
000003f0: 1a9f 90bd 2c86 113d e6a2 00bc 793b bdbd
0.04376116 -0.012255823 -0.1490202 0.01351197 0.04356803 0.024528734 0.11519789 -0.019184627
-0.14806077 -0.13360494 0.039361276 0.06496729 -0.26564166 0.082915045 -0.17853266 -0.12383922
-0.15597452 0.23753542 -0.025765467 0.12912568 0.09085047 0.10058611 0.1004887 -0.23806643
0.22951952 0.11777311 0.13172023 -0.14988342 -0.21453829 -0.13854618 0.01606081 -0.07954296
0.23206459 -0.036233515 -0.055585083 -0.0769899 -0.023942906 -0.02607178 -0.0681942 -0.16372897
0.013188758 -0.15442076 -0.10367866 0.16785589 -0.13089134 0.13041402 -0.0072252387 -0.12550631
-0.008221778 0.16616262 -0.19847332 0.18189399 -0.20420784 -0.08394694 0.03992111 0.16245373
-0.1610577 0.19065435 0.29307234 0.12821524 0.050975934 -0.13959232 0.13369872 0.20403723
-0.023174683 -0.1941463 -0.11049192 -0.09609327 0.07988525 -0.046549 -0.15285785 -0.1340429
-0.23904635 0.056506354 -0.20608607 0.036730845 -0.20969641 -0.035453234 -0.0123739075 -0.13353673
0.066627264 -0.08043358 0.046294466 -0.034217916 -0.09443325 -0.085258715 -0.24289224 -0.17188087
0.17339726 -0.15397821 -0.22702925 0.054933596 -0.041869227 0.016714497 -0.062376212 -0.17344452
-0.0023350157 0.14795662 -0.07328617 0.16793343 -0.085310414 0.19160484 -0.2084857 -0.07638537
0.1437291 0.11797145 0.0776528 -0.20133884 0.05162905 -0.18709604 0.18481746 -0.079534285
-0.1264 0.08637792 0.005053263 0.054497484 0.07619583 0.10852481 0.044509556 0.09022583
-0.17243427 0.1874224 -0.092439644 -0.088490225 -0.061044138 -0.13310929 -0.14463574 -0.19192992
-0.1209798 0.022256406 0.024363143 0.18535517 0.21193792 -0.1240797 -0.16466558 -0.06204624
-0.076784305 -0.0595508 0.17508507 -0.10437505 0.15777168 -0.054918446 -0.1467716 0.018989274
-0.17531414 -0.039085813 -0.053283896 0.18586846 0.06743545 0.15645635 -0.050470665 0.13588932
-0.00195532 -0.10159916 0.21780953 -0.07691417 -0.2608383 -0.025771655 0.014416194 -0.22901979
0.2650276 -0.029328872 0.009191982 -0.24950927 0.020545691 0.14100778 -0.24283397 0.015430566
0.029827459 0.08003973 -0.2534255 -0.11070286 0.0981841 0.24170181 -0.056405768 -0.17352207
-0.018218081 0.26096818 0.07335187 -0.027046816 -0.019062134 0.007506827 0.0023585598 -0.12985161
0.05512695 -0.1970291 0.069449924 0.21635316 0.19606285 0.029047705 0.1373036 0.16373199
-0.16413547 -0.17944919 0.13224494 0.053434223 -0.1437709 -0.13199681 -0.12093992 -0.035750322
-0.23899142 -0.0050133527 -0.041301433 -0.20834896 0.04272141 -0.11428565 -0.16985455 0.05500704
-0.080473565 0.16146505 0.063350074 -0.005249126 -0.013288857 0.2046878 -0.016501369 0.013249424
0.15413943 0.22111358 0.041629136 -0.10469615 -0.0663976 -0.08566436 -0.0821228 0.1531565
0.08731881 0.26234797 0.11697385 0.0823089 0.13592958 -0.064595975 -0.1999236 -0.014659528
0.20043802 0.12208862 0.13695693 -0.18255228 0.11321694 -0.13063706 -0.017737674 -0.14255373
-0.009622933 0.026733356 -0.14605294 0.0137764765 0.006441534 0.12806712 -0.06615988 0.033104964
0.08406022 0.008098841 -0.0052972604 -0.08100576 -0.07061596 0.035528347 -0.007851338 -0.09239859

bilstm.weight_hh_l0_reverse f4 [80, 20]
00000000: 9067 c9bd 3e11 1e3e e259 343e ed5a d73d
00000010: 775f 813d 33b2 43be 9c94 713d f3f0 10bd
00000020: 0c6c 22be 840b 293d 1493 d6bc 05de 083e
00000030: 5a6d ca3d 61df 96bc ead5 9dbd 1af3 b7bd
00000040: cfa2 623e cf31 e5bc fd10 623d 2185 0d3e
00000050: 378a 37be c580 013e dbe0 c23c 6b3e 4d3e
00000060: 1473 1cbd dfee 03be eecd 3dbe 38a5 12be
00000070: 82e5 29bd c065 97bd 86cc c33d 2cf4 5abe
00000080: bcd8 943d 21ca b13d ad65 ca3d f481 ea3c
00000090: 8095 613d 4849 0dbe e321 ebbd ebfe 023e
000000a0: 5898 4ebd cf6b 75bc 9367 d8bd b197 62be
000000b0: d379 193e 643e 673d fd54 403d 07eb 50bd
000000c0: e544 36be b411 2e3e 8412 413e efde 98bd
000000d0: 0eeb 3cbe 705d 37bc 5cfa c1bd d235 03be
000000e0: c1e2 b13c 064a 34be 996a 28be 9800 c3bd
000000f0: 6b2d 803d e0b1 503e cdf8 8fbd 16ec 513e
00000100: 1790 843d 984b 30bd f07e f33d c20c 14be
00000110: 4a4f 23bd 3a10 a8bd 5b9a 6bbc 9742 14be
00000120: 040d ff3c 93e7 40be edb7 9ebd f37a c4bc
00000130: cf19 5cbe 2f81 533d 51dc a43d 5184 48be
00000140: e5a1 573d 3d0a 3fbe dc0b 3c3e 697c 11be
00000150: 969c 053e 2a20 86ba d0f7 55be fe67 07be
00000160: 0337 4cbe 0e69 5abe 495b 5dbe e393 e53d
00000170: d6e0 c73b 44c5 4fbe 4bce 543e a815 71bd
00000180: 8699 a33d 1f24 3fbe 65d2 acbd 17b1 e9bd
00000190: f45f 613e 683e 2b3e 61d6 133e dd86 023e
000001a0: 4048 593e c89a 6fbd 34ae 18be 4b30 34bc
000001b0: c8b3 1abe 2c90 1dbe 29a0 1e3e bcea b9bd
000001c0: fec1 383e 3920 00be e6ee 663d 3a53 1b3e
000001d0: c7e1 b23a 0487 2b3e 14d4 b1bd 2413 023e
000001e0: 8281 2f3e e490 343c 16d7 9abd e214 58bd
000001f0: 9214 36be d956 b2bd 5687 1fbe 3d99 413e
00000200: 48ea 873d 6e59 5abe 1d40 e9bd 2e9a 0abe
00000210: 2511 5fbe 095e 22be 46c0 023e dc81 43be
00000220: 092b c13c bba8 93bd d962 21be dae1 3dbe
00000230: 35b6 54bd e32a 38be 10cb 333e 37c9 39be
00000240: f7d5 19bc d65c bd3c 7d2c e7bd f2ae 28bb
00000250: 603d ac3d d563 b2bd c37c d8bd e362 2dbe
00000260: 17aa 79bd b291 6dbd ae2a 283e 0f3d debd
00000270: dae3 08bd 7ccb 1a3c 2855 2abe a8d9 4bbe
00000280: 8a3d d93d 39cf 06be fd66 313d df16 4f3e
00000290: c080 4b3d eef0 3fbe 7f9b 05be 0c7d 523e
000002a0: 3778 54be 62f7 00be 1f01 0f3e 59ff f6bd
000002b0: 7694 38be db54 9e3d bcba 53be db8e 333e
000002c0: bdfd c63d a863 afbd 400f aabd b1fb a43c
000002d0: b1d0 04be 21dd 5c3d 4501 643e 623d c93c
000002e0: 9e5f 50be 4561 d7bd 2b8c acbd 2873 27be
000002f0: 0794 21be 843d 97bc 31a5 4b3e 5cfc d13c
00000300: df7e 503e b758 653d a26a 0e3e a940 3dbe
00000310: 30de 1c3d 505a 843d c8e1 563e 578a 6b3d
00000320: 43ee 0fbc 4583 fcbc 206c 103e dab4 5c3d
00000330: e433 3e3e 3489 343e 9213 3a3e 118d ec3d
00000340: 2bdd 5a3e c214 3a3e a3f0 2c3d c484 8abd
00000350: 9020 debd 6913 4dbd 4538 2abe b152 f43d
00000360: 4281 5c3d 8039 fe3d 31f4 08be 3eee 4cbe
00000370: 5762 3f3e 06de 16be a446 57be cca6 463e
00000380: db34 4fbe f563 3b3d 464e 9e3b cd10 99bd
00000390: 12de 8b3d c476 58bd fec0 563e 51da 5e3e
000003a0: ab8a 57bc 030f 503e fa33 a9bd dd14 5cbd
000003b0: b382 2dbe 293f 933d 8627 4ebe cc4f 583e
000003c0: 8579 3cbe a720 19be 030f 253e 8491 58be
000003d0: 0231 233e 87e0 c5bd 899c 3abe 8206 343e
000003e0: 7fca 333d a76d 29bd 1f96 5bbe 49a4 3ebe
000003f0: 6a5c 113e 2ef5 44bd db6f b63d e9f7 ce3c
-0.09834206 0.15436265 0.17612413 0.105153896 0.063170366 -0.19110946 0.058979616 -0.035386037
-0.15861529 0.041270748 -0.02619318 0.13365944 0.098841384 -0.018417062 -0.077068165 -0.08981915
0.22132419 -0.027977852 0.055191983 0.13820316 -0.17923819 0.12646778 0.02378886 0.20043342
-0.038195685 -0.12884091 -0.18535587 -0.14320838 -0.04147864 -0.07392454 0.09560494 -0.21382207
0.07267901 0.08681131 0.09882674 0.02862642 0.055074215 -0.13797486 -0.11481073 0.12792556
-0.050438255 -0.014979317 -0.1056663 -0.22128178 0.14987879 0.056455985 0.04695605 -0.05100539
-0.17799719 0.1699894 0.1885472 -0.07464396 -0.18449041 -0.011191711 -0.094715804 -0.128135
0.02171457 -0.17606363 -0.16446914 -0.095215976 0.06258663 0.20380354 -0.07029877 0.20500216
0.064727955 -0.04304084 0.11889446 -0.14457992 -0.039870538 -0.0820622 -0.014380063 -0.14478527
0.031134136 -0.18838339 -0.07749925 -0.023984408 -0.2149422 0.05163687 0.080498345 -0.19581725
0.05264463 -0.1865625 0.18363899 -0.14207615 0.13048014 -0.0010232974 -0.20895314 -0.13223264
-0.1994286 -0.21329138 -0.21616854 0.11209848 0.0060998006 -0.20290095 0.2078182 -0.058858544
0.07988267 -0.18666123 -0.08438567 -0.1141073 0.2200926 0.16723025 0.14437248 0.12746759
0.21218967 -0.05849722 -0.14910203 -0.010997842 -0.15107644 -0.15387028 0.15490784 -0.09077975
0.18042752 -0.12512292 0.056380175 0.15168467 0.0013647609 0.16750723 -0.08683029 0.12702614
0.17139247 0.011020873 -0.07560556 -0.05275429 -0.17781284 -0.08707971 -0.1557897 0.18906112
0.066364825 -0.21323177 -0.11389182 -0.13535377 -0.21783884 -0.15856184 0.12768659 -0.19092506
0.023580091 -0.07209917 -0.15760364 -0.18543187 -0.05193158 -0.1798511 0.17557931 -0.18143164
-0.009389392 0.023115557 -0.11287782 -0.002573904 0.08410144 -0.08710448 -0.105706714 -0.16932254
-0.060953226 -0.058000274 0.16422531 -0.1085149 -0.03342042 0.0094479285 -0.16634047 -0.19907248
0.10607441 -0.13164987 0.043311108 0.20223568 0.049683332 -0.18744251 -0.13047598 0.20555514
-0.20748983 -0.12594369 0.13965271 -0.120604225 -0.18025383 0.07731029 -0.20676702 0.17534964
0.097163655 -0.0856393 -0.0830369 0.020139547 -0.12970234 0.053921822 0.2226611 0.024565402
-0.20348975 -0.105165996 -0.084251724 -0.16352522 -0.15779124 -0.01846195 0.19887234 0.02563303
0.20360897 0.05599281 0.13907865 -0.18481697 0.038297832 0.06462538 0.20984566 0.057504978
-0.008784833 -0.030824313 0.14103746 0.05388341 0.18574482 0.17630464 0.18171528 0.11550344
0.21373431 0.18171981 0.042221677 -0.06763604 -0.108460546 -0.05006734 -0.16623028 0.11929835
0.053834207 0.12413311 -0.13374402 -0.20012757 0.18689857 -0.14733133 -0.21023041 0.19399565
-0.20235007 0.045749623 0.0048311083 -0.074739076 0.06829466 -0.05284764 0.20972058 0.21762969
-0.01315562 0.20318227 -0.08261867 -0.053730834 -0.16944389 0.07189781 -0.20132264 0.2112419
-0.18405731 -0.14953862 0.16119008 -0.2114926 0.15936664 -0.09661966 -0.18223776 0.17580608
0.043894287 -0.04136434 -0.21443985 -0.18617357 0.1419541 -0.048085384 0.089080535 0.025264697

bilstm.bias_ih_l0_reverse f4 [80]
00000000: 180b e8bd 0f3e bcbd b7c9 28be 36e6 103e
00000010: 4f27 5c3d 5685 803e 755b f33d ff9a d3bd
00000020: eaef 453e dcbb 873e 9bcf 243e dafe 21be
00000030: 5252 213d ce93 ff3d 83f4 20bd 2389 673e
00000040: 0b1c 6b3d e493 30be 16f1 6d3e 3458 203e
00000050: c300 d33d ae17 a33d 1d43 4dbe 1190 4b3d
00000060: 8052 4cbe 5d9d 3b3e 15aa 303e 7e48 8a3d
00000070: 41f9 a93d 6a08 a8bd dfb0 bd3d 2c74 b4bd
00000080: d808 3ebe 9131 9ebd f214 1abe a757 a7bc
00000090: 32c4 783d 85e9 5f3d 5083 51be bcdb ce3c
000000a0: c96c 3fbe 3682 b53d 63f5 3cbe b1da b33d
000000b0: b07a d93b bc77 50be 2cc8 b3bd 7bd9 3a3e
000000c0: 4347 02be 7600 f6bc 0c0b e6bd 606f 07be
000000d0: c272 703d 057e 27be ca5b 953d 04ad 523e
000000e0: 0576 45be 8621 4c3e 8a43 25be a3e5 503d
000000f0: 26e3 203e f78d 463e f3fe 533e 26b9 a13d
00000100: fdbf 32be 28c1 02be f119 1bbd 119c 0a3e
00000110: 8ac5 13be cb71 333e 9373 643d caf5 843d
00000120: 4640 1a3e a72a 04be 4220 a43d 26d0 a53c
00000130: f020 3e3e 1576 05be 0d57 18be f5f9 c33d
-0.11330241 -0.09191524 -0.16483198 0.14150319 0.053748425 0.25101727 0.118826784 -0.103322975
0.19329801 0.26510513 0.1609482 -0.15819874 0.039385147 0.124793634 -0.039295685 0.22610907
0.05739979 -0.17243916 0.23236498 0.15658647 0.1030288 0.07963501 -0.20045133 0.04969794
-0.19953346 0.18321748 0.17252381 0.06752108 0.082994945 -0.0820473 0.09262251 -0.088112205
-0.18558061 -0.07724298 -0.15047053 -0.020427538 0.06073398 0.05466606 -0.20460248 0.025251262
-0.18693842 0.088627264 -0.18452983 0.087819465 0.00663694 -0.20358175 -0.08778414 0.18247025
-0.12722497 -0.030029517 -0.11232576 -0.1322608 0.05870319 -0.16356666 0.07292898 0.20573813
-0.19283302 0.19934663 -0.16139045 0.05100025 0.1571165 0.19390093 0.20702724 0.078966424
-0.1745605 -0.12768996 -0.037866537 0.13536097 -0.14430824 0.17523877 0.055774283 0.06492193
0.15063581 -0.12906896 0.08013965 0.020240854 0.18567252 -0.13033326 -0.14876957 0.0956916

bilstm.bias_hh_l0_reverse f4 [80]
00000000: 5f1b d23c 027a 3ebd efc0 633e b484 92bd
00000010: ce9c 4abe 9b71 3a3e b2bc 0a3e 8e5a 52bd
00000020: 4be4 14be d517 913e 9aef babc 2f45 9b3d
00000030: 9c37 833e 3656 f73a 9266 f53d b68b ecbd
00000040: d1aa 4cbd cf92 88bc caa5 1e3e 68fb bf3c
00000050: 237c 86bd 7418 083e aeaf e33d cb22 e2bd
00000060: 0260 f3bb 2ecc 1c3e 681f f7bd 61d2 b339
00000070: 1f63 b4bd 4680 e8bd 8fda 603e 7cbb 223e
00000080: 48ca 3bbe fffb f0bb 1215 803d 7fba 4bbb
00000090: 1035 3d3d 7e36 313d 288b 0b3e 17ac fa3d
000000a0: f418 f9bd 4920 b6bc 9900 d1bd 8eaf 2ebe
000000b0: c670 2f3e 07a8 e6bd de1c edbd cbe7 aa3d
000000c0: 3301 53be 30bf 28be 5c39 f5bd f3cd e93c
000000d0: cc90 49bd e795 0e3e 1856 013d aaf3 5bbe
000000e0: 8b5c 5cbe 3862 d3bd 2e06 4e3e 356e 243d
000000f0: 5135 9dbc bb36 88bd 46b0 f63d 31bd 11bd
00000100: d687 c93d 10cc 64bd 3bdb 383e 074d a3bc
00000110: 6a60 6c3e e0d6 c2bd 80d8 46be 3e8b 00bc
00000120: cd55 913d 830a 943d f340 7bbd 011f 81bd
00000130: 4001 8d3e 9f90 bc3c 9a9f b1ba 0f9a 013d
0.025647817 -0.046503074 0.22241567 -0.07154217 -0.19786379 0.182074 0.13548544 -0.05135589
-0.14540212 0.28338495 -0.022819329 0.07581555 0.25628364 0.0018870297 0.11982454 -0.11550085
-0.04996759 -0.016671566 0.15492931 0.02343531 -0.06566646 0.13290578 0.111174926 -0.110417925
-0.0074272165 0.15312263 -0.12066537 0.00034298285 -0.08807968 -0.11352591 0.21958373 0.15891832
-0.18338883 -0.007354259 0.06254019 -0.0031086502 0.046193182 0.04326486 0.13627303 0.12239855
-0.121629626 -0.022232192 -0.10205192 -0.17059156 0.17132863 -0.112625174 -0.115777716 0.08344992
-0.20605926 -0.16479182 -0.11973831 0.028540587 -0.049210355 0.1392437 0.031576246 -0.21479669
-0.21519677 -0.10321468 0.20119545 0.040144164 -0.019190462 -0.06651064 0.1204534 -0.035580818
0.09840362 -0.05585867 0.1805238 -0.01993419 0.23083654 -0.095136404 -0.19418526 -0.007845698
0.07096443 0.072285675 -0.061341237 -0.06304742 0.27540016 0.02301818 -0.0013551593 0.031641062

fc.weight f4 [2, 40]
00000000: e6b2 bf3d c13a 923e 2bdb 3abe b888 683e
00000010: 350b 273e 01e6 cc3b af86 623e 3e51 f3bd
00000020: 390b 8cbe aeb0 583e b886 efbd c851 07be
00000030: 4f12 d13c e38f 8bbd f3b4 d43d 0952 453e
00000040: 5238 733e 40ae 89be ae0e ac3d 6071 503e
00000050: 5765 7cbd 96de 3ebd 8097 873e 167e 723e
00000060: e920 4dbe afd4 10be a8c3 8fbd 77e6 89be
00000070: 762c 4dbe 1039 65be 1f64 353e e31b 6e3d
00000080: a01f 713e 582e 30be 8595 de3d 266d 2bbe
00000090: 3d20 80be fc37 72be 0520 37be 46dd 553e
000000a0: abf1 6cbe 23fa e9bd 67ef 683e e091 bfbd
000000b0: 1714 6ebe bffb 73bc 3c9e f3bd 395d 453e
000000c0: 728a 39bb ba57 43be 7555 3c3e ca3c 2f3e
000000d0: 9a19 483e 5a2e 883e 5189 5dbe 8321 2bbe
000000e0: b29d a3bd 5ac6 0a3e e8a0 36be 84e2 29be
000000f0: 4319 4a3e ceeb 2b3e 9cc4 5bbe dfc2 e3bc
00000100: cc5f 463e 70ff 223e 139f 0c3e 87be 3b3c
00000110: 2ce5 41bd 31ef 283e 1fae 3fbe a262 13be
00000120: d8a9 d4bd a482 06bd 0b4f 2ebe 4c15 293e
00000130: 4a6d d3bc 78a8 7b3d 3534 8c3c 8688 d7bd
0.09360294 0.2856045 -0.18247668 0.22708404 0.16312869 0.0062530045 0.2212169 -0.1188073
-0.27352312 0.21161148 -0.116956174 -0.13214791 0.025521426 -0.068145536 0.10386076 0.19269575
0.23751953 -0.26890755 0.084012374 0.20355749 -0.061620083 -0.046598993 0.26482773 0.2368091
-0.20032085 -0.14143632 -0.0701974 -0.26933643 -0.20036492 -0.22385049 0.17713974 0.058132064
0.2354722 -0.17205179 0.10868362 -0.16740856 -0.25024596 -0.23654169 -0.17883308 0.2088519
-0.23139064 -0.11424663 0.22747575 -0.09353995 -0.23249851 -0.014891564 -0.11895415 0.19273843
-0.002831128 -0.19076434 0.18391974 0.17113033 0.19541016 0.26597863 -0.21634413 -0.16712002
-0.07989062 0.13552228 -0.17834818 -0.16590315 0.19736199 0.16789171 -0.2146172 -0.027802883
0.19372481 0.15917754 0.13732557 0.0114589995 -0.047337696 0.16497494 -0.18718766 -0.14393094
-0.103839576 -0.032839432 -0.1702234 0.1651203 -0.025808949 0.06143996 0.017114738 -0.10524087

fc.bias f4 [2]
00000000: fbc7 3f3c 544f c03d
0.011705394 0.09390131
