eegmodels/bilstm_weights.pth (torch, 99296 bytes, 10 tensors)

bilstm.weight_ih_l0 f4 [80, 128]
000000 5b cd 21 bd db 60 6b 3e 24 d0 e7 3d ee 7a 5b 3e
       -0.039502483 0.22986166 0.113189965 0.21433613
000010 69 c1 3f be 65 26 b1 bd bd 58 e2 bd f9 e7 37 be
       -0.18726124 -0.08649901 -0.11052082 -0.17959584
000020 dc a9 80 3c 9d dc a2 bb e9 3a 0c 3e 42 8c e3 bb
       0.015705995 -0.004970147 0.13694347 -0.0069442103
000030 ea ac 90 3b e2 95 c4 bd 49 34 46 be 42 d5 a0 bd
       0.004415144 -0.095989004 -0.19355883 -0.07853176
000040 14 b0 d8 3d 3a 0f 42 bd aa 8d 26 3e dd 99 ef 3d
       0.10580459 -0.047377802 0.16264978 0.11699269
000050 c5 87 1b bd e5 75 27 3e ae 19 4b be cb 4d cd bd
       -0.037971277 0.16353567 -0.19834015 -0.100246035
000060 61 18 17 bd 91 56 a8 3c 77 f3 7f 3d 7e 4e 2a be
       -0.036888484 0.02054909 0.062488046 -0.16631505
000070 50 7e bc 3d 95 83 8b bd b3 55 4e be 03 0f 53 be
       0.0920378 -0.06812207 -0.20149879 -0.20611195
000080 23 b2 32 3e e3 5d 4e be bc 4b 37 be 1f d9 0c 3d
       0.17450766 -0.20153002 -0.17899984 0.03438675
000090 90 a4 08 3e 00 60 43 be f4 70 1a bd 00 78 3c 3e
       0.13344026 -0.1907959 -0.037705377 0.18405151
0000a0 cf f4 6e 3e 33 f1 69 bc 61 66 c1 3c 47 f4 b2 3d
       0.23335575 -0.014278698 0.023608388 0.087379985
0000b0 ae fa 33 3e 7e d5 bf bd 0d 1c 9e bd a8 91 1f be
       0.17576095 -0.09366892 -0.07720194 -0.15582907
0000c0 a6 b4 3e be 14 ec 98 bd cb 55 f7 3d 0f 99 2c bd
       -0.186236 -0.07466903 0.120769106 -0.042138156
0000d0 38 87 e5 bd 91 93 97 bd 37 8c 17 3e 0e 97 cf 3d
       -0.112074316 -0.07401193 0.14799581 0.10136233
0000e0 3c 3b 34 3e fd 86 93 3d b1 52 55 be d9 f2 2e 3c
       0.17600721 0.07203481 -0.20832326 0.010678017
0000f0 69 eb bf 3d f5 56 c4 bc 22 be 55 be 2c 18 6c bd
       0.09371073 -0.023967246 -0.20873311 -0.05764024
000100 3e 7a e3 3c 07 d3 34 be 74 f0 7b bd 8d b9 81 bd
       0.02776825 -0.17658626 -0.06150861 -0.06334219
000110 71 76 1d 3d ee 19 16 bd a2 47 8c bd 6e 15 9d 3d
       0.038443033 -0.036645822 -0.068496004 0.07670103
000120 a4 f5 fc bd 68 34 43 be 67 a9 0b be 3a 91 f5 bb
       -0.1235154 -0.1906296 -0.1363884 -0.007494119
000130 6b 88 b5 3d 1e 2a 6d be ab ba cd bd 6a cb 11 3e
       0.0886391 -0.23160598 -0.1004537 0.14237753
000140 00 a8 b6 3d bd 5f 1e bd a2 b9 dc 3d 56 c0 31 3e
       0.08918762 -0.038665522 0.10777594 0.17358527
000150 90 31 9c 3d 44 a5 08 3e fe f3 ae bc a9 56 6a be
       0.07626641 0.13344294 -0.021356579 -0.2288462
000160 34 23 53 3e 5b f9 11 3d 80 72 0b 3e ef 41 45 3c
       0.20618898 0.035638195 0.13617897 0.012039646
000170 1c 20 00 be d7 87 4d 3e 36 a7 82 bc 5f 51 00 bd
       -0.12512249 0.2007135 -0.015948873 -0.0313276
000180 9d 7c d0 3d 94 ac 36 3d ce 21 51 be 62 15 14 be
       0.10180018 0.044598177 -0.20423052 -0.14461282
000190 0e ea 48 3c 57 2a d8 3c 51 2f 29 38 e8 e5 1f 3e
       0.012262834 0.026387377 4.0336807e-05 0.15615046
0001a0 54 73 38 3e 99 d8 28 3d d6 09 3b be 14 ae 04 3e
       0.18012744 0.04122219 -0.18265471 0.1295703
0001b0 88 d0 0a be 8d af 8b 3a f8 55 26 be 7a fe ba bd
       -0.13556111 0.0010657177 -0.16243732 -0.09130569
0001c0 08 86 6e 3e 0a cd 1a 3d 20 fa 1d 3e aa e8 07 be
       0.23293316 0.037793197 0.15427446 -0.13272348
0001d0 b7 ec 03 be ac b9 1a 3e ea d5 38 be 5c eb bc 3d
       -0.12883268 0.1510989 -0.18050352 0.09224579
0001e0 93 d2 14 be 03 20 3f 3e 0e d8 56 bc 81 b8 b8 3d
       -0.14533453 0.18664555 -0.013113035 0.09019566
0001f0 07 af 24 be 0e 9e 0e bd f0 a6 95 3d 8f 1c 8b 3d
       -0.16082393 -0.0348187 0.073072314 0.067925565
000200 38 2b 73 b9 3c 05 87 bd 7a ee 3b 3e d4 96 14 bd
       -0.00023190386 -0.06592795 0.1835269 -0.036276653
000210 79 af 43 3e 21 d9 12 3e b3 a1 a4 3d ad f0 36 3c
       0.19109906 0.1434064 0.08038654 0.01116578
000220 1c 02 38 be 48 da 2d 3d 6e a2 b5 bd ad 14 55 bc
       -0.17969555 0.042444497 -0.08868872 -0.013005418
000230 d1 17 36 bd 9d 47 44 3e f8 f1 c2 bd 6a b6 f6 bd
       -0.044456307 0.19167943 -0.09518808 -0.120465115
000240 48 eb 40 3d 60 cd e3 bc 08 16 59 3e 8b 86 fb 3c
       0.04709938 -0.027807891 0.2119981 0.030703804
000250 14 2f 0f 3d 39 c4 c0 bd 80 c7 66 bd 61 19 fc 3d
       0.034957007 -0.094124265 -0.0563426 0.12309528
000260 1a 26 54 be 25 72 3a be 0d 07 3b 3e 85 58 0d 3e
       -0.2071766 -0.18207605 0.18264408 0.13803299
000270 3d de 4f 3e e8 9b f4 3b f4 54 27 be 9d 61 41 3e
       0.20299621 0.0074648745 -0.16341001 0.18884893
000280 04 75 cc 3b a1 d7 a0 bd 41 b5 22 bd 5b 96 fa 3d
       0.0062395353 -0.07853628 -0.03972364 0.12235709
000290 19 ef 95 bd e8 f6 ce 3d e6 89 fb 3c 48 6f 92 3a
       -0.07320995 0.101056874 0.030705404 0.001117208
0002a0 39 38 38 3e 3c ac 1a 3e 48 2f e7 bc a4 df 2b 3d
       0.17990197 0.15104765 -0.028220788 0.041961327
0002b0 84 9d bf 3d d4 34 0f be e7 f5 e4 bb 56 ac d6 bd
       0.093562156 -0.13984996 -0.0069873217 -0.10482089
0002c0 32 5a 06 be 83 fd 87 bb e8 04 4b bd 20 08 13 be
       -0.13120344 -0.004150094 -0.049565226 -0.14358568
0002d0 ab c5 c7 bd 1c fd 01 3d ad 0e b8 bc 73 31 a1 3a
       -0.09754499 0.031735525 -0.022467935 0.0012298062
0002e0 da 8b d5 bd d1 75 0c 3e df 11 81 3d 73 16 c1 3d
       -0.10427065 0.13716818 0.06302237 0.0942811
0002f0 5f f5 02 be 10 49 89 3d 5a ed 95 bd 5f 94 f8 3d
       -0.12788914 0.06703389 -0.07320662 0.121376745
000300 26 db c8 3d 7f 9d 7c 3e 5b f7 a1 bd 75 c8 e1 3d
       0.09807424 0.24669455 -0.079085074 0.11024562
000310 78 a8 4b bd 1c d6 eb 3d 6c 3f 49 bd e9 68 03 be
       -0.04972121 0.115154475 -0.04913275 -0.12832989
000320 d1 bf bc 3d 5c 9a 1e be 72 14 64 bd bf 38 27 3d
       0.092162736 -0.15488571 -0.05568356 0.0408256
000330 4e 96 49 be 7a f1 bf bc 6c 24 2e be 34 ef f1 bd
       -0.19686243 -0.023430575 -0.17006081 -0.118132025
000340 50 9a 1d be cc 37 4c be 5a 72 90 3d 3a 4a bb 3c
       -0.15390897 -0.1994316 0.07053061 0.022862542
000350 cd 27 72 bd 3c 23 d9 3d ce 1c b3 3d af 52 06 3d
       -0.05911999 0.106024235 0.087457284 0.032793697
000360 85 f6 1d 3e 95 62 04 3e ec 03 68 bc 65 56 0c 3d
       0.15426071 0.12928231 -0.014161091 0.03426208
000370 3e 18 17 be 2f 9f 1a bd b0 ea 5c 3d 1a 1d 1d be
       -0.14755341 -0.037749466 0.053934753 -0.15343133
000380 3e 8e 31 be 71 0a 1a bd bc 17 6e bd 7f 4a 63 3e
       -0.17339417 -0.037607614 -0.058128104 0.22196387
000390 ec 99 31 be c6 4e d5 bd eb 59 97 bc 20 28 e6 3d
       -0.17343873 -0.104154155 -0.018475493 0.11238122
0003a0 31 fe ac bd 5f ec 60 3e 09 1b d3 3c 84 17 24 be
       -0.08446921 0.21965168 0.025769727 -0.16024595
0003b0 8c e1 15 bd 39 f9 66 bd cd 47 60 3e 0b c0 13 bc
       -0.03659205 -0.05639002 0.2190239 -0.009017955
0003c0 21 41 cb 3d 33 cc 14 3e b5 3e f3 bd 7a 8d 06 3d
       0.09924532 0.14531021 -0.11877195 0.032849766
0003d0 1b eb d3 bd 62 bf b0 bd 2e 52 71 3d 82 0a b4 3d
       -0.10347577 -0.086302534 0.058916263 0.08791067
0003e0 c6 fa 38 be c1 88 b5 bd 7b 18 9e bc 32 22 36 bd
       -0.18064412 -0.08863974 -0.019298783 -0.044466205
0003f0 f4 3b b9 bd 88 05 38 3e 77 10 90 bc c4 0f 2c be
       -0.09044638 0.1797086 -0.017585976 -0.16802889

bilstm.weight_hh_l0 f4 [80, 20]
000000 2f e4 28 be 52 24 56 bd 1f b6 4d bc ba 9b f4 3c
       -0.16493295 -0.05228073 -0.012555628 0.029859412
000010 b9 0d 89 3c ce bf 8c bd 3c 35 ed bd eb 06 a7 be
       0.016730176 -0.06872521 -0.11582419 -0.32622465
000020 f7 53 54 3e 55 f8 b4 3d a7 a3 51 3e 3a 1d 44 3e
       0.20735155 0.08836428 0.20472585 0.19151774
000030 fd 46 6c bd 1d 6b 53 3d 54 a0 95 3d 04 68 c6 bd
       -0.057684887 0.051615823 0.07305971 -0.09687808
000040 13 a6 ec 3d 91 6b 39 3d 70 ab bc bd 2a 19 24 3e
       0.11555114 0.0452686 -0.092123866 0.16025224
000050 7a 40 9b 3d 32 86 5e bd ab 95 4c 3d 73 ed 53 3e
       0.07580657 -0.054327197 0.049947422 0.20696048
000060 a7 c4 c8 bd f3 8f 3b be f2 c2 88 bd a3 27 53 be
       -0.098031335 -0.18316631 -0.06677808 -0.20620589
000070 df 07 e0 3d 3d 33 8b bd 17 8f a6 3d cb 48 c7 bd
       0.10939001 -0.06796882 0.08132761 -0.09730681
000080 3d 38 ea 3c 5d b8 9c bd b0 ec d0 bd 7c c6 ea 3d
       0.02859127 -0.07652352 -0.102013946 0.11463639
000090 2d a2 b6 bd 4c 6d 19 be 39 79 5e be a6 71 af 3d
       -0.08917651 -0.149831 -0.2172593 0.085665986
0000a0 11 26 cc bd fa cc e6 bd 6c 58 10 be a7 f2 e8 3d
       -0.09968198 -0.11269565 -0.1409623 0.11374407
0000b0 19 83 b5 bd 6b 88 36 3e 8f 00 34 3e bc e1 4a 3d
       -0.088628955 0.17825477 0.17578338 0.049531683
0000c0 19 83 16 be f2 1f 3a 3e e7 3a 46 3d 76 b1 8e bd
       -0.14698447 0.18176249 0.048396017 -0.06967442
0000d0 72 41 13 be f2 6d 2c 3d 52 c7 87 3c ec 1d 08 be
       -0.14380434 0.04209704 0.016574536 -0.13292664
0000e0 38 c9 13 3e a8 7a 00 be e6 fe 60 bd df a8 f7 3b
       0.14432228 -0.1254679 -0.05493059 0.007557973
0000f0 cc cf ab bd 00 14 80 be ba 2b 5c bc 43 5f 1a be
       -0.083892435 -0.2501526 -0.01343816 -0.15075402
000100 3d dc 99 3e 81 7d d1 bd f0 74 dc bd 53 2c 94 be
       0.3005084 -0.10229016 -0.107644916 -0.28940067
000110 b1 32 2a 3e f2 7c 97 bd 3d bf 8c 3c 06 fa 25 3e
       0.166209 -0.07396878 0.017181033 0.16208658
000120 2f 57 7f 3e fa 3b a3 bd b8 0b a0 3d 06 2e 64 bd
       0.24935602 -0.07970424 0.07814735 -0.055707954
000130 34 e0 8f bd aa 34 50 bc 52 12 db bd 45 f7 bc 3d
       -0.07025185 -0.012707869 -0.10696854 0.092268504
000140 2a e7 3f 3c ec ea 2c 3d d7 59 36 bb 76 5d 12 3c
       0.011712829 0.042216226 -0.0027824545 0.008933416
000150 e1 c2 58 3c 78 70 be 3d 9c 7e 4a be 7e 6e 22 be
       0.0132300565 0.092987955 -0.1977486 -0.15862462
000160 d3 59 4f 3c 7a a0 f4 3d c6 d8 39 be 94 0e 50 be
       0.012655693 0.11944671 -0.18149099 -0.20318061
000170 e9 74 a9 3d d2 59 93 3d df 66 ab bd f2 65 52 be
       0.08274252 0.07194866 -0.083692305 -0.20546702
000180 e4 6a 80 3c 46 b2 2a bd 71 58 06 be 6f 4a 6f 3b
       0.01567597 -0.04167392 -0.13119675 0.0036512872
000190 41 a8 1f 3d 07 1d 48 3c b8 2f e8 3b f0 d4 2e 3d
       0.03897882 0.012213952 0.0070857666 0.04268354
0001a0 1b 3c 7f 3d dc 8f 49 bd 41 f2 40 be 27 39 fe 3d
       0.06231318 -0.04920946 -0.18842413 0.12413245
0001b0 9d af dc 3c 0d f9 03 3e 6e 6a 2e be c9 8d 07 be
       0.026939208 0.12887974 -0.17032787 -0.1323768
0001c0 ed e7 c9 3d 10 bd cd bd 29 6d 16 3e b2 46 03 3d
       0.098586895 -0.100458264 0.14690079 0.032049842
0001d0 03 08 73 3e 49 07 1a 3d dd bc b2 bd bf 26 3d be
       0.23733525 0.037604604 -0.08727429 -0.18471812
0001e0 66 e7 9c bd 99 74 64 be f8 5e 48 3c 47 ef 57 3e
       -0.07661323 -0.22310103 0.012229674 0.21087371
0001f0 46 9b 82 bd c1 00 3d 3e 09 e5 3b 3e 50 e5 f8 bd
       -0.06377272 0.18457319 0.18349089 -0.12153113
000200 8c 9d a2 bd d6 e0 26 be 54 72 f0 bd de 9f df bd
       -0.07940206 -0.16296706 -0.11740556 -0.10919164
000210 cf d7 54 3d bb ac e8 bd d3 f2 23 3d f5 b0 26 3e
       0.051963624 -0.11361071 0.040026497 0.16278441
000220 96 f8 7e 3d 35 1d 50 be 11 de 38 3d 14 b8 5e be
       0.06224879 -0.20323642 0.045133654 -0.21749908
000230 c3 0c 1c 3e 7e a3 11 be a7 47 49 3e c2 65 b8 3d
       0.15239243 -0.14222524 0.1965624 0.09003784
000240 3e 67 15 be 2c cd 8a 3d f6 c1 e7 3d 87 cf 28 be
       -0.14590165 0.06777415 0.11316292 -0.16485415
000250 39 51 86 3d 48 ba 14 3e a5 5d 42 be df 93 0e 3e
       0.06558461 0.14524186 -0.18981035 0.13923596
000260 54 a4 0d 3e c5 1b 18 be 28 60 f3 bd f5 ae df bd
       0.13832217 -0.14854343 -0.11883575 -0.10922042
000270 b7 90 de bd 8a 37 4e 3e e8 5f e9 3c 87 64 9b bc
       -0.10867446 0.20138374 0.028488114 -0.018968834
000280 36 3e 53 3e 79 f5 0e 3e 0d 62 39 be 3a 77 76 3e
       0.206292 0.13960828 -0.1810381 0.24068919
000290 66 17 d1 3d 89 6b 42 3d 3b 86 55 be e4 ea b2 bd
       0.10209541 0.047465835 -0.20851986 -0.08736208
0002a0 96 5f 16 be 35 dd 1b 3e 70 63 86 bd 4a f5 0f 3d
       -0.146849 0.15221103 -0.06561935 0.035146035
0002b0 7d fd af 3d 5a f1 96 3d c3 3d 0b 3e 4f f7 53 bd
       0.08593271 0.07370253 0.13597779 -0.051749524
0002c0 6f c8 1b 3e af 51 5a be 4b d0 ac 3b f9 43 4e 3d
       0.15213178 -0.21320222 0.005273854 0.050357793
0002d0 1e 33 d3 3c 21 6c 20 be 0f 6f e2 bd db 16 34 3d
       0.02578121 -0.15666248 -0.11056339 0.04396711
0002e0 d0 41 8d bd 40 c3 5f be 79 3f 16 be 73 0d 00 be
       -0.06897318 -0.21851826 -0.1467265 -0.1250513
0002f0 2b b8 22 3e 39 b7 d7 bd 0b cd 15 3d 15 0b 18 be
       0.15890567 -0.10532994 0.036572497 -0.14847977
000300 60 bc d9 3d b7 6a 4e be 64 7c 46 bd 7d 05 07 be
       0.10631633 -0.20157896 -0.048458472 -0.13185687
000310 85 4e b0 bd 52 24 49 be 4f 5c bd 3d d8 97 35 3e
       -0.086087264 -0.19642761 0.09246122 0.17733705
000320 c2 17 74 bd d8 76 21 3e 9b 5e dc 3d 93 e8 54 3c
       -0.05959297 0.15767992 0.10760232 0.012994903
000330 33 d5 48 3e 84 1e 00 be 86 4c 41 3e 20 88 f0 bd
       0.19612579 -0.12511641 0.18876848 -0.11744714
000340 78 03 35 3e a9 15 f7 3b 52 3e 1b 3d 00 83 1d 3d
       0.17677104 0.007540424 0.03790123 0.03845501
000350 54 8f 85 bd d7 5d 09 bd bb 26 c7 bd a2 3b 08 3e
       -0.06521478 -0.03353676 -0.09724184 0.13303998
000360 44 7b 25 be fd 65 74 3e 97 c0 a7 bd 51 2b 0a be
       -0.16160303 0.2386703 -0.081910305 -0.13493086
000370 50 56 2b bd bd ce 5c 3d 02 8d 28 3d c0 39 97 3d
       -0.04183036 0.0539081 0.0411501 0.07384062
000380 6e fc 96 bd 2c 72 d3 bd c9 44 bf bd f0 66 84 3c
       -0.07372366 -0.10324511 -0.093392916 0.016162366
000390 98 d7 2f 3e 1d 0a 3e 3e c7 80 2a be 9e de df bc
       0.17172086 0.18558545 -0.16650687 -0.027327832
0003a0 85 79 f7 bc 6e de 6a be 2b c0 fc bd bd 5b d6 bd
       -0.030209312 -0.22936413 -0.12341341 -0.104667164
0003b0 88 d4 b8 3d 0c 00 30 3e 31 08 14 bd 29 c8 de bc
       0.09024912 0.17187518 -0.036140624 -0.027195053
0003c0 4c 6a 19 3e 62 32 52 be 79 41 3c 3e da f6 35 3e
       0.14981955 -0.20527032 0.18384351 0.17769948
0003d0 d0 39 ba bd 2d 8d 2c 3e 3b 2d f3 bd e8 3d 02 be
       -0.09093058 0.1685073 -0.118738614 -0.12718928
0003e0 e6 84 f8 3d 7f 72 0c be d5 72 80 bd b8 8d 44 3d
       0.12134723 -0.13715552 -0.062719025 0.047986716
0003f0 a7 d6 9b bb c6 bf 0f 3e 6b 7d 1a 3e 9f 67 1c be
       -0.004755813 0.14038 0.15086906 -0.15273903

bilstm.bias_ih_l0 f4 [80]
000000 3e 0f 49 3c 42 70 bf bd 8f 48 7f 3e eb 1b d6 bd
       0.0122717 -0.09347583 0.24930023 -0.10454544
000010 36 d4 31 3d a9 7c 61 3e b2 c9 9e 3d 6e f5 5b 3d
       0.04341527 0.2202021 0.07753314 0.053700857
000020 af f6 c7 bc bb 65 58 be 0c a8 28 be 85 cf 42 bd
       -0.02440962 -0.21132557 -0.16470355 -0.047561187
000030 ff 28 36 be 51 23 b0 bd 96 b5 c0 bc 24 5e 06 bd
       -0.17789076 -0.08600486 -0.023524087 -0.032804623
000040 a9 bf 4f bd 1f ca 2c 3c bf ea 0f 3d 5f bd 3c be
       -0.05071989 0.010546236 0.03513598 -0.18431614
000050 ad c1 20 bd c5 7d a4 bc df fc be bd 0a 92 1d 3e
       -0.039247204 -0.020079503 -0.09325575 0.1538774
000060 ca 18 80 3e 1d 39 a2 3d 95 23 7d 3e af 41 c0 3d
       0.25018913 0.0792105 0.24720605 0.09387528
000070 82 2c e5 3d 30 66 47 bd 2a 8c 82 3d 6b 73 e7 bc
       0.1119013 -0.048681438 0.063743904 -0.028253278
000080 ca 7d 00 3e 4c 2d ef bb 0e 8a 12 be 4f 9b 76 3b
       0.12547985 -0.007299101 -0.14310476 0.0037629192
000090 5d 57 76 bc ac eb 8e bd a5 8c 0e 3e 8f f2 4b be
       -0.0150354775 -0.069785446 0.13920839 -0.19916748
0000a0 eb d2 51 bb 1d f9 0f bc 20 68 43 3e 25 e2 48 3e
       -0.0032016586 -0.008787421 0.1908269 0.19617517
0000b0 00 02 30 3d b8 eb 4a bc c5 03 b7 bd de 5b e4 bd
       0.042970657 -0.012385301 -0.08936266 -0.11150335
0000c0 14 6f 9d bc 91 42 0a 3e ac be 5b 3e d1 dc 4e 3e
       -0.019218005 0.13501956 0.21459454 0.20201422
0000d0 77 d0 0e be 4e ce 4a 3e 12 0b 0e 3e 39 53 55 be
       -0.1394671 0.19805261 0.1387141 -0.20832528
0000e0 4b 8e 27 3c 85 54 64 3e 6c 11 4a 3e 99 2b 58 be
       0.010226796 0.22297867 0.19733208 -0.21110381
0000f0 f2 55 26 3e a3 1a 56 3e d1 3e 8d bd 7b fd 45 bd
       0.16243723 0.20908599 -0.06896747 -0.04833744
000100 42 f2 85 3e 49 4f a3 bd 8e a3 9c 3d 72 bf d0 bd
       0.2616139 -0.07974107 0.07648383 -0.10192765
000110 74 54 4f 3e f7 0e d3 3d bb 0c 1e 3e 58 cf b2 3d
       0.2024706 0.10305589 0.15434544 0.08730954
000120 2a 93 18 3b e9 a5 d1 3d 33 c8 a4 bc d3 25 68 bd
       0.0023281076 0.10236723 -0.020114994 -0.056676697
000130 ab c6 f4 3d 63 55 15 3e f6 68 41 be 71 dd cf bd
       0.119519554 0.14583354 -0.18887696 -0.101496585

bilstm.bias_hh_l0 f4 [80]
000000 ec 94 99 3d c7 2d 7d 3d 40 47 41 bd e9 e0 94 bd
       0.07499108 0.061811235 -0.04718709 -0.07269461
000010 e8 89 dd bd be 42 4b 3e 91 9d ea 3d fc 6f 4b be
       -0.10817319 0.19849679 0.11455835 -0.19866937
000020 b6 2a c8 3d 02 4a b6 3d 6a c0 5d 3e 27 4d 27 3e
       0.097737715 0.089008346 0.21655431 0.16338025
000030 3c 0c a0 bd c7 66 2f be b9 9a c6 bd 3e c7 21 be
       -0.078148335 -0.1712905 -0.0969748 -0.15798661
000040 8b d6 25 3e f3 9f 13 3e d8 d2 92 3d dc 78 f5 bd
       0.16195123 0.14416485 0.071691215 -0.11985943
000050 ab 4d 5e 3e b5 fe 99 bd 45 ee 90 3a de ae f8 3d
       0.21709315 -0.07519285 0.0011057338 0.12142728
000060 2b 39 47 3e 30 f8 9d 39 93 07 41 be 6b 1a 09 bd
       0.19455402 0.00030130288 -0.18850546 -0.03347246
000070 98 27 89 3d 51 a6 12 3e 42 c5 d5 bd 69 c7 7a bd
       0.06697005 0.14321257 -0.104380146 -0.06122533
000080 14 cd db bc 3d 5f 0e be 5a 27 78 3d 0d 98 73 3c
       -0.026831187 -0.13903518 0.060584404 0.014867795
000090 16 65 fb bc 60 70 f2 3d 58 43 0d 3e dd 5e 01 be
       -0.03068785 0.1183784 0.13795221 -0.12633844
0000a0 ea 17 48 3e ad 18 a8 3d 5a 85 68 3d fc 5d 8e 3d
       0.19540372 0.082078315 0.0567678 0.0695152
0000b0 64 76 93 bd 19 2e 16 3d 2b 7b 42 3e 34 6b 24 3e
       -0.072003156 0.036665056 0.18992297 0.1605652
0000c0 f1 66 be 3d 70 02 68 bb e7 73 a2 bd 29 d5 d0 3d
       0.09296978 -0.0035401843 -0.07932263 0.10196907
0000d0 eb 0e 6b bd 17 8b 00 3e e3 f0 1c be 04 53 0b 3e
       -0.057387274 0.12553059 -0.15326266 0.13605887
0000e0 e1 f6 b1 3d 7b 04 e7 3d 3f 91 0d 3e b5 5a 48 be
       0.086896665 0.112801515 0.13824938 -0.19565852
0000f0 c9 b0 0e be b8 0c 66 3e ae 15 a5 3d db 3d d5 3d
       -0.13934626 0.2246579 0.08060776 0.104121886
000100 56 16 26 be 94 52 56 3d 8d 7f 8e bd 46 d2 18 3d
       -0.16219458 0.052324846 -0.06957922 0.037309907
000110 22 4c ba 3d ad 21 ce bd fc 5f ed 3c a7 11 46 be
       0.090965524 -0.10065017 0.028976433 -0.19342671
000120 eb 56 5c bc d0 c8 9d 3e 60 dd 00 3e 96 6b d5 3d
       -0.013448457 0.3081727 0.12584448 0.10420911
000130 2c 6f cd 3c 2b 85 e0 bd c1 88 29 bd c5 e3 c5 3d
       0.025077425 -0.109629 -0.041390184 0.09662584

bilstm.weight_ih_l0_reverse f4 [80, 128]
000000 db cc 32 be a1 25 97 3b 42 69 03 bd dd 71 22 3e
       -0.17460959 0.00461264 -0.032082804 0.15863748
000010 6d bb 04 3e 1e 02 05 3e 5e 7a ee 3d 71 1f 45 be
       0.12962122 0.12989089 0.116444334 -0.19250275
000020 82 e1 8b be 3d 81 d0 3d 93 77 88 bd f1 4e ef bc
       -0.27320486 0.101809 -0.06663432 -0.029212447
000030 bf dd 44 3e 40 93 a3 bd 54 f7 86 3e 74 9b 17 be
       0.19225214 -0.0798707 0.2636057 -0.14805394
000040 62 74 a5 3d 22 9d aa 3d 0a d8 36 be 9d 7a a8 bc
       0.08078839 0.08330752 -0.1785585 -0.020566279
000050 77 94 31 3e da f1 8e 3e d6 ca 63 be 36 52 50 be
       0.17341791 0.27918893 -0.22245345 -0.20343861
000060 e9 be 15 3e f1 24 38 3c a0 bc 9e 3a d0 e9 23 3e
       0.14623608 0.011239276 0.0012110658 0.16007161
000070 f7 ab 19 be 98 08 5c bd 1d 3a b1 bd da b3 f9 bb
       -0.15007006 -0.053719133 -0.08653662 -0.007620317
000080 c0 93 b3 3d fd 28 e7 3d 1d ec 62 3e 5d e5 87 bc
       0.087684155 0.11287115 0.22160383 -0.016588861
000090 f9 a9 41 3e c3 41 6f 3e ac 2d 06 be c5 24 12 3e
       0.18912496 0.2336493 -0.1310336 0.14271839
0000a0 d3 fa 45 bd 73 c6 b2 3b d9 29 09 be ff 56 70 3e
       -0.048334908 0.005455786 -0.1339487 0.23470686
0000b0 ac ff 6a be af 9e 83 3e 96 c3 47 3e d2 f0 8a ba
       -0.22949094 0.25707003 0.19508204 -0.0010600334
0000c0 ff 8a e2 3c 84 f1 13 bd 4b b2 9f 3d eb 29 56 3e
       0.02765417 -0.036119 0.077976786 0.20914428
0000d0 26 c3 d7 3d 44 8d 47 3e fd 73 ca bc fc d4 7c be
       0.105352685 0.19487482 -0.02471351 -0.24690622
0000e0 ce c2 59 be 09 6a ad bd ee bb 05 be 92 31 14 3d
       -0.21265718 -0.0846749 -0.1305997 0.036180086
0000f0 57 dd 07 3e 2a 18 48 be 16 cf 16 3e 0d 78 12 3e
       0.13268028 -0.19540468 0.14727435 0.14303608
000100 9d e0 66 be 02 f2 d6 3d 77 52 8e 3d cf cb 7a be
       -0.2254662 0.10495378 0.06949323 -0.2449181
000110 d0 2f 42 3c 09 39 21 be 35 95 41 3d db 0b 25 bd
       0.01185222 -0.15744413 0.047261436 -0.04029451
000120 d9 ac 81 be 1f f2 83 bd c3 3a d1 bd 31 21 d5 3c
       -0.25327185 -0.06442665 -0.10216286 0.026016803
000130 18 15 23 bc 54 d6 d5 bc e4 84 0b bd 0a d3 3d 3e
       -0.00995376 -0.026103176 -0.03406228 0.18537536
000140 cb 44 c2 bc 23 9a 40 3e 4d f0 75 3e 16 7e 09 be
       -0.023714444 0.18808798 0.24017449 -0.13427004
000150 65 d0 71 3e 86 1d 15 3e 95 00 77 3c 41 fa 3f 3e
       0.23614652 0.14562044 0.015075822 0.18747808
000160 64 d0 0b 3e 62 ff 6c bc 26 93 f0 3d 70 f0 cd bd
       0.13653713 -0.014465185 0.11746816 -0.100556254
000170 06 50 8f 3d da 75 0d be 96 ef 0b be e2 45 05 bd
       0.06997685 -0.13814488 -0.13665614 -0.03253735
000180 25 71 b7 3d a9 8c 92 bd a4 35 dc bd ae ba 5c 3e
       0.089571275 -0.07155735 -0.10752419 0.21555588
000190 d9 2e 76 3c c7 91 ce bd fd 01 b3 3d ed 7c 5f 3e
       0.015025818 -0.100863986 0.087406136 0.21824999
0001a0 36 66 ff bd 50 f5 f9 3c 0d df 8e be 0d 3e 7c bd
       -0.12470667 0.030512482 -0.2790455 -0.061582614
0001b0 52 72 d1 3d ed fe 87 be cb db be bc a2 84 40 bd
       0.10226883 -0.2656168 -0.023298165 -0.04700149
0001c0 1f fd b8 bd c3 1d 13 3e 9f bc 15 3d bd d3 e0 3d
       -0.09032654 0.14366822 0.036556836 0.10977886
0001d0 26 14 59 bd 1a 69 7a be 7c 3f 81 bb 6f 57 70 3e
       -0.05299773 -0.24454156 -0.0039443355 0.23470853
0001e0 e3 89 01 3e 3f 67 14 be e6 ff d8 3d bf a7 43 3e
       0.12650256 -0.1449251 0.10595684 0.19106959
0001f0 33 2f 81 b8 ae df 46 bd eb 74 75 be f9 78 79 3e
       -6.159991e-05 -0.04855316 -0.23970382 0.24362554
000200 19 68 74 bd 80 b5 a5 3c 79 31 ef bd 49 41 5b be
       -0.059669588 0.020228148 -0.11679358 -0.21411623
000210 14 ee 25 3e 57 ea 16 3e 9d f3 b1 bd dd 44 88 bd
       0.16204101 0.14737831 -0.08689044 -0.0665376
000220 c5 1f 4a be 1c cf 10 be 66 f0 8c bd a3 c6 f1 3d
       -0.19738682 -0.14141506 -0.0688179 0.11805465
000230 30 ef b6 3d a8 f3 a5 bd 12 2f 91 bc 45 36 46 3c
       0.0893234 -0.08103114 -0.01772264 0.0120979
000240 f1 51 ed 3d 2d a0 7c 3e 2a b7 a9 3d 0a 14 79 bc
       0.11587895 0.24670477 0.08286889 -0.015202532
000250 4e 76 17 bb 78 2a 27 3e 22 dd 56 3d 8c fc cc 3c
       -0.0023111287 0.16324794 0.052456982 0.025022767
000260 36 02 26 3c 14 5e 9a be c7 7d 09 3e 77 40 07 be
       0.010132363 -0.301499 0.13426886 -0.13208185
000270 69 33 16 be fe 11 35 be ba be 0c be 8d 33 33 3e
       -0.14668049 -0.17682645 -0.13744631 0.17500134
000280 98 f4 54 be d6 e9 35 be 52 84 fd 3d db b0 fc 3d
       -0.2079643 -0.17764983 0.12378754 0.1233842
000290 a7 b8 0b be b3 1f 78 bd 18 1b a0 3d 0e 22 54 be
       -0.13644658 -0.060577106 0.07817668 -0.20716116
0002a0 46 fd c0 bd 21 19 2e 3d 7c ca 71 3d 77 69 83 3e
       -0.09423308 0.042504434 0.059030995 0.256664
0002b0 50 61 64 be 74 f3 ba bd a7 60 74 be dc 6e 4d be
       -0.22302747 -0.09128466 -0.23864995 -0.20061821
0002c0 d1 b9 ec bd bd 56 83 be b6 8c 64 3a 74 48 71 3e
       -0.11558879 -0.25652114 0.00087184773 0.23562795
0002d0 4f e1 09 be a9 ee 1b be 8d 88 c6 bd 34 4f ef bd
       -0.13464855 -0.1522776 -0.09694014 -0.11685029
0002e0 dc a0 44 bd 34 2e 0c 3e 55 0a 24 be ce da 4e be
       -0.04800497 0.136895 -0.16019566 -0.20200655
0002f0 5f 8a be 3d c1 51 55 be 35 b8 4a 3e 2b 86 7c 3c
       0.09303736 -0.20831968 0.19796832 0.0154128475
000300 4c 65 82 be a6 3f 75 3d ec 5a 48 bd 64 0d 8f be
       -0.25467908 0.059875153 -0.048914835 -0.27939904
000310 01 c6 a2 3c 0c 5b 1e 3e 19 4a 46 3e 69 4e a3 3d
       0.019869806 0.15464419 0.19364204 0.0797394
000320 83 64 78 be e2 1b 04 3d d9 49 fc bd 63 84 b4 bd
       -0.24257092 0.032253154 -0.12318773 -0.08814313
000330 2b e1 91 be f7 98 28 be 7e d3 d4 3d 77 02 96 bd
       -0.28492102 -0.16464601 0.103919014 -0.07324689
000340 8d 3f 0e 3c 47 dc 8f 3e 5f ec c1 3d c2 a0 3b be
       0.008682144 0.28097746 0.09468912 -0.18323043
000350 c9 59 a8 bc 8c 3d 28 3e 2c ac 5f 3c cf a4 a6 3d
       -0.020550625 0.16429728 0.013651889 0.081369035
000360 fd 38 ce bd db 36 1c be 61 f1 23 3e b0 8e be 3c
       -0.100694634 -0.152553 0.16010047 0.023261398
000370 cf 77 99 3c a7 30 10 bd d1 78 15 be 90 ec 35 bc
       0.018733887 -0.03520265 -0.14596869 -0.011103764
000380 9f d0 35 bd 11 40 6b 3e dd 25 15 3e 8a 62 e2 3d
       -0.04438841 0.22973658 0.14565225 0.11053951
000390 d4 b6 d9 3c 53 64 1e 3e ff c3 25 3e e3 48 07 be
       0.026576437 0.15467958 0.16188048 -0.13211398
0003a0 da dd 07 be 83 f6 9d bd 89 56 fd 3d 10 a0 73 be
       -0.13268223 -0.07713034 0.12370021 -0.23791528
0003b0 ef 23 0a 3e fa fd 16 be eb d4 d1 bc 8e 28 82 be
       0.1349027 -0.14745322 -0.025614223 -0.25421566
0003c0 0d 6a a5 bd 50 ca 38 bd f2 87 01 3e b4 52 91 3d
       -0.08076868 -0.045114815 0.12649515 0.070958525
0003d0 c1 2e 4c be 15 9f 4e 3c 14 ec f5 bb c3 51 1f be
       -0.1993971 0.01261117 -0.0075049493 -0.15558533
0003e0 89 a2 48 be 85 09 84 3d 01 09 99 be af 3f ed bd
       -0.19593252 0.06447128 -0.29889682 -0.11584412
0003f0 77 b1 09 be b4 8b 7a 3a 7f 3c 56 bc 71 95 ad bd
       -0.13446604 0.00095575606 -0.013075947 -0.08475769

bilstm.weight_hh_l0_reverse f4 [80, 20]
000000 6b 93 55 be 15 5f 2f 3e e1 9c 3e 3e 58 24 4f 3e
       -0.20857017 0.17126115 0.18614532 0.20228708
000010 14 29 51 bd f5 94 d1 3d 9a 26 bf 3d ea 66 18 bd
       -0.051064566 0.102334894 0.093335345 -0.03720752
000020 73 ae 5b 3b 9e ba df 3d 31 d4 4f bd 78 b4 05 3e
       0.0033520728 0.10924266 -0.05073947 0.13057125
000030 26 0a 19 3c f7 35 8c 3d 59 9a 8b 3c ce d6 48 bd
       0.0093407985 0.068462305 0.017041372 -0.04903298
000040 f7 e6 ab bd 8c a0 0b be 9b 37 39 be 17 c9 cd bb
       -0.083936624 -0.13635463 -0.18087618 -0.0062800753
000050 cc 93 14 be cc fb 6e 3d 02 c7 9f 3d e6 7d 78 bc
       -0.14509505 0.0583456 0.078016296 -0.015166735
000060 40 d2 3a bd 29 44 fd bd ab 76 03 be 4d a6 95 bd
       -0.045610666 -0.12366516 -0.12838237 -0.0730711
000070 20 e5 e4 bd 55 0e 05 3d 1c 5b 60 be a7 64 19 3d
       -0.111765146 0.03248437 -0.21909755 0.037449505
000080 ee 01 48 3c 7f ba 19 be 44 8d 66 bd e5 ad 17 be
       0.012207491 -0.15012549 -0.056287065 -0.14812429
000090 22 91 2e 3e 25 e6 e3 3c 58 bd 42 3e 0a e1 d2 3d
       0.17047551 0.027819702 0.19017541 0.10296829
0000a0 4b 64 ba 3d 91 b3 16 3e e2 07 07 3e 60 a9 59 be
       0.091011606 0.14716937 0.13186601 -0.21256018
0000b0 15 b9 3b 3e 67 64 5f 3e 46 91 1f 3c 2a d4 8c 3d
       0.18332322 0.21815644 0.009739226 0.068764046
0000c0 c5 a6 bf bd 79 fe 9d bd 78 64 06 be 53 03 23 be
       -0.09357981 -0.077145524 -0.13124263 -0.15919237
0000d0 5e 7d 0e bd 10 d7 d2 bd 32 da 0f 3e ae 80 f9 3d
       -0.03478753 -0.10294926 0.14048079 0.12182747
0000e0 ce e2 f4 3d 40 57 43 3e b8 83 ed 3c 59 58 eb 3d
       0.11957322 0.19076252 0.028993472 0.1149146
0000f0 20 f6 2b be 37 55 d9 bd ad 09 f0 bd ef 06 c0 3d
       -0.16793108 -0.106119566 -0.117205955 0.093763225
000100 d2 d5 d3 bd e4 40 b9 3d 7a f8 38 be 91 d7 3c bd
       -0.10343517 0.0904558 -0.18063536 -0.046104018
000110 a9 df 36 be f3 fc f2 3b d8 ae 51 be 69 fc 5d be
       -0.17858757 0.007415408 -0.20476854 -0.21678318
000120 9d e8 61 3e b4 cf 61 3e 9d 83 30 3e 0a db 31 3c
       0.22061391 0.22051889 0.17237706 0.010855446
000130 e8 92 b6 bc 76 41 16 3e d5 63 f0 3c d6 07 00 bc
       -0.022286847 0.14673409 0.029344479 -0.007814368
000140 d8 57 34 3d a3 8d e3 bd 43 62 92 bd 64 d5 99 bd
       0.044029087 -0.111109994 -0.07147648 -0.07511404
000150 51 8a ed 3d d7 8c f3 bc 6b 6e e5 3d c5 c6 22 3e
       0.115986474 -0.029730244 0.11202701 0.15896137
000160 5f fc f7 bc e9 0d 51 3e e9 2b 23 3e 39 2f 6d bd
       -0.030271707 0.20415463 0.15934719 -0.057906363
000170 ee 01 9a bd 10 65 23 3d 0f aa 85 3d d1 22 1e be
       -0.07519899 0.039891303 0.06526577 -0.15442969
000180 4a 73 8c 3d 46 de 8f bb 38 a3 a1 bc 40 9a 36 3e
       0.06857927 -0.0043905107 -0.01973115 0.17832279
000190 38 39 00 be 52 28 15 3e 17 70 f9 3d 52 69 99 bd
       -0.12521827 0.14566162 0.121795826 -0.074907914
0001a0 ea e1 2c 3e 5a b9 54 be 01 fe 30 bc eb 88 89 3d
       0.16883054 -0.20773831 -0.010802747 0.06715568
0001b0 53 7f 31 3e b7 de d7 bd b4 80 a9 bd af e0 37 be
       0.17333727 -0.10540526 -0.08276501 -0.17956804
0001c0 e2 1e f2 3d 35 4a 36 be 05 48 4d be 33 ef cd 3d
       0.11822297 -0.17801745 -0.20047005 0.10055389
0001d0 30 da ba 3b 63 65 95 3d f5 52 27 bd 82 d7 1d bd
       0.0057022795 0.072947286 -0.0408506 -0.038535602
0001e0 27 2c 3a 3e d0 3c 95 3d ab f7 54 3d 81 32 eb bd
       0.18180905 0.0728699 0.051994007 -0.11484242
0001f0 4a 05 06 3e 73 ef f1 3c 9f 66 4e bc 44 7e 0f bd
       0.13087955 0.029533124 -0.012597709 -0.035032526
000200 5a 5c 58 be 32 50 45 3e 22 ee 27 3e 2e 4f bd bd
       -0.2112898 0.19268873 0.16399434 -0.09243618
000210 63 ec 0e 3e 80 86 83 bd 66 0d 36 be f4 fc 45 be
       0.13957362 -0.06422138 -0.17778549 -0.19334775
000220 5b 02 0d be 6e 48 80 bd 0b 33 61 be 9a 22 54 be
       -0.1377043 -0.06263815 -0.21992128 -0.20716324
000230 75 59 1c 3e 28 d6 f3 3d 0c 92 b9 3d 2d ba 03 3e
       0.152685 0.119060814 0.09061059 0.12863989
000240 ad 31 33 3e b3 10 d5 bd 58 5f 27 be 57 0b 20 3e
       0.17499419 -0.10403576 -0.16344965 0.15629326
000250 6f cf 3a be d3 db c2 bc 65 b6 b7 bd a9 d1 c8 bb
       -0.18243192 -0.023786461 -0.08970336 -0.006128509
000260 03 24 80 39 4a 7b fa 3d 0d c1 16 3d ea 7d a6 3d
       0.00024440893 0.12230547 0.0368052 0.08129485
000270 7c fe 23 bd 72 b4 16 be f9 a3 19 3e d7 80 42 be
       -0.040037617 -0.14717272 0.15003957 -0.18994461
000280 53 88 35 be 6e 71 9c 3d ca bb ee bd b7 99 ec bb
       -0.17727785 0.076388225 -0.11656912 -0.0072204727
000290 4d 61 f7 bc 2e 10 27 bd 18 e0 01 3b 53 82 e0 bd
       -0.030197764 -0.040786915 0.0019817408 -0.10962357
0002a0 cf e5 98 bd 7f 0c 2e be 3e b4 3f 3e ef 75 19 3e
       -0.074657075 -0.16996954 0.187211 0.14986394
0002b0 27 52 13 be 54 aa 3c 3e 2d 74 64 3e 02 3c 33 3e
       -0.14386807 0.1842435 0.22309943 0.1750336
0002c0 fa 58 31 3e da c2 08 3e 06 70 12 be 01 da ce bd
       0.17319098 0.1335558 -0.14300546 -0.10100175
0002d0 61 ee 42 3e df 79 51 3e 12 4e 0c 3e af bb f8 3d
       0.19036247 0.20456646 0.13701656 0.12145173
0002e0 ec 76 d1 3d 62 0e 43 be 88 c2 47 be b1 0b 3f be
       0.10227761 -0.19048455 -0.19507802 -0.18656804
0002f0 59 36 41 3e bd 46 54 be 95 04 64 3d fb b4 b6 3d
       0.18868388 -0.2073011 0.055668432 0.08921238
000300 51 5f 59 be c9 98 3a 3e 96 05 63 be a3 9b bb bd
       -0.21227767 0.18222345 -0.221701 -0.09160545
000310 b7 16 00 be c3 f4 17 3e b6 62 12 bc 09 47 ec bd
       -0.12508665 0.14839463 -0.008934667 -0.115369864
000320 51 c3 23 be 4d 2a 5b 3d 07 a2 44 3c 14 1d 5e 3e
       -0.15992476 0.053507138 0.012001521 0.2169078
000330 a6 bf 08 3e 19 16 c0 3d 15 fd 48 3e 58 5a 56 3e
       0.13354358 0.09379215 0.19627793 0.20932901
000340 c1 ef 02 be c1 c7 44 3e 0b 53 02 3e 5b 39 a0 3d
       -0.12786771 0.19216825 0.12726991 0.0782344
000350 6d 9a b5 3c f7 32 80 3d cb 6e 4f be 25 f6 f9 3d
       0.022168363 0.06259721 -0.20257108 0.122051515
000360 93 04 ca 3d 24 27 e2 3d a5 c9 25 be a7 e5 3c bb
       0.09864154 0.11042622 -0.16190203 -0.0028823407
000370 ec 1b 3e be da d0 b8 3d 0b 60 2e be ff fd ca bc
       -0.18565339 0.0902421 -0.17028825 -0.024779318
000380 76 c0 1c be bf ec 92 bd a0 4a 63 bd 51 b5 d6 3d
       -0.15307793 -0.07174062 -0.05549109 0.10483802
000390 eb b6 5b 3e cd da a2 bd e6 c7 e2 3d c0 f1 66 bc
       0.21456496 -0.07951889 0.11073284 -0.014095724
0003a0 40 e0 38 3d dc 62 c6 3d 18 21 a9 3c af d4 2c bd
       0.045135736 0.09686825 0.020645663 -0.04219502
0003b0 b6 e5 2b 3e 48 29 4d 3e f6 a3 ce bd 4b e6 0d 3e
       0.16786847 0.20035279 -0.10089867 0.13857381
0003c0 1f 9f 08 bc e1 70 42 be 6b 54 ab bc 23 6f 84 bd
       -0.008338719 -0.18988372 -0.020914277 -0.0646651
0003d0 24 25 ea bd 8b 1a 03 3d 79 af 55 3d ba fa 95 bd
       -0.11432865 0.032007735 0.052169297 -0.07323213
0003e0 12 70 43 be ef 29 79 bd 67 3b 3e 3e 1f a8 88 bc
       -0.1908572 -0.060831007 0.18577348 -0.016681729
0003f0 00 92 be 3d 9e ac 34 b8 fc 62 2d 3d ca 86 4d bd
       0.09305191 -4.3076107e-05 0.042330727 -0.050177373

bilstm.bias_ih_l0_reverse f4 [80]
000000 40 0e 72 bd 75 f4 c9 bd 8a 21 27 be 2d 47 6b be
       -0.05909562 -0.098610796 -0.16321388 -0.2297637
000010 fa 9d 10 3e 59 00 e8 3d 37 9f 2e 3e a0 7a e1 bd
       0.14122763 0.11328191 0.17052923 -0.11009717
000020 1e e6 1d bd e3 71 5f 3e e9 66 c7 3d 86 5a 2a 3d
       -0.038549535 0.21820788 0.097364254 0.041590236
000030 9d 48 fa bd 5b bf 40 3e b9 74 8e bd 61 97 77 3d
       -0.12220881 0.18822996 -0.06955857 0.0604471
000040 66 c0 5e 3e 13 e9 34 3d 17 39 f4 bd 7f d2 df bc
       0.21753082 0.04416759 -0.119249515 -0.027322052
000050 bf 5c 2e be 5e e9 01 be de 8b 37 bd e9 1d 1a be
       -0.17027567 -0.12686679 -0.044811122 -0.15050472
000060 da c3 25 be 74 cf 0f be 75 e1 f7 bd bb 4b 90 3d
       -0.16187993 -0.14043981 -0.121035494 0.070456944
000070 0e f2 a1 3d f1 b1 c9 3d 58 24 a4 3d a9 3b 3f be
       0.079074964 0.09848393 0.080147445 -0.18675102
000080 87 59 02 3e 88 93 ff bd 8c 0d c1 3d 78 d9 27 be
       0.12729464 -0.12479311 0.09426412 -0.16391551
000090 ba 47 3a 3d c3 a6 11 be 53 ab 01 3e 25 35 ea bd
       0.04547856 -0.14223771 0.12663011 -0.11435918
0000a0 d9 62 fb bc da 7a 25 be 32 00 68 3e 6c 4b a7 3d
       -0.030686783 -0.16160145 0.22656325 0.081686825
0000b0 a4 41 08 be 0f 9d 2c 3d d1 5e 38 be 8a b6 6e 3e
       -0.1330629 0.04214197 -0.1800492 0.2331182
0000c0 02 73 bc 3d dd 0c 78 3d 71 5d e6 3c 35 bd d5 3d
       0.092016235 0.060559142 0.028120728 0.10436479
0000d0 29 c2 28 3e 8c ad 3d be 0d 5d 94 bd 97 9c ef bd
       0.16480316 -0.18523234 -0.072443105 -0.11699789
0000e0 5b f8 d0 3d fa cb b7 bc 8a dc 02 be 3f 23 56 bd
       0.1020362 -0.02243613 -0.12779441 -0.052279707
0000f0 51 40 a5 3d 3d c7 f5 3d 00 03 43 be bb 53 11 3d
       0.08068908 0.12000892 -0.19044113 0.035480242
000100 bf 9c d4 3d 87 89 04 3c 35 40 53 3e 9a d3 b3 bd
       0.103814594 0.00808943 0.20629962 -0.08780594
000110 45 9e 59 3e 73 47 a7 3d 4b 5a e3 bd a2 be d8 bd
       0.21251781 0.08167925 -0.111012064 -0.10583235
000120 41 d8 3b bd b6 74 1b be c8 99 6e 3e 9b 9f 02 3d
       -0.045860533 -0.1518124 0.2330085 0.031890493
000130 59 8d 74 3e a2 0b 42 bd 4a ff 8b bd 35 d0 c8 3d
       0.23882045 -0.047374375 -0.06835802 0.09805337

bilstm.bias_hh_l0_reverse f4 [80]
000000 db 7f ed 3d b4 ea 84 3b eb 49 05 bd 10 7c 42 be
       0.11596652 0.004056299 -0.032541197 -0.18992639
000010 8e f5 b2 bd f0 74 97 3e 3e 4f 52 3e 07 05 57 3e
       -0.08738242 0.29581404 0.20538041 0.20998012
000020 37 74 88 3e b7 f3 05 be 72 65 88 3e f8 c0 81 3e
       0.26651165 -0.13081251 0.26639897 0.25342536
000030 40 d2 08 bd 9f 87 c7 bd e0 5f 27 3e 6c 5a 7c 3d
       -0.033403635 -0.097426645 0.16345167 0.06160967
000040 5a 7e de 3c 58 03 9c bc a2 95 1c 3e 94 f0 e5 3d
       0.027159858 -0.019044563 0.15291455 0.11227527
000050 62 11 08 bd d0 4b e3 3d 04 86 84 3c 42 30 2d 3e
       -0.033219703 0.110984445 0.016177185 0.1691294
000060 58 20 df 3d 75 3d 46 be 28 5b ac 3c 2a 53 d3 3d
       0.10894841 -0.19359381 0.02103956 0.10318597
000070 fa 5f 96 3d 80 b3 fc 3d 8e 92 0f 3d 80 ad 56 3e
       0.07342525 0.123389244 0.035051875 0.20964622
000080 0b 7a 0f 3d 13 65 13 be be 12 20 3c 38 ca 22 be
       0.0350285 -0.14394026 0.0097700935 -0.15897453
000090 14 09 5b 3e 2f bd 1f bd b0 00 12 be e1 8c 1c 3e
       0.21390182 -0.03899878 -0.14258075 0.15288116
0000a0 0a 18 20 be 04 2c 22 be 68 d0 c8 3d d7 3a 46 be
       -0.1563417 -0.15837103 0.09805375 -0.19358383
0000b0 46 49 db bd 9a b0 48 be 93 5f a8 bd 84 11 a5 3d
       -0.10707335 -0.19598618 -0.08221354 0.080599815
0000c0 0c 32 1e bd 29 64 2d 3e fc fc a4 3d ae 01 fe 3d
       -0.038621947 0.1693274 0.080560654 0.12402664
0000d0 ac be e6 3d ae f0 3d bd 2c 7b e7 3d 47 ee b0 bb
       0.112668365 -0.04637211 0.1130279 -0.0053994986
0000e0 c0 c7 4b be 90 b7 d1 3d 85 ef 38 3e 6d 8d c0 3d
       -0.19900417 0.1024009 0.1806012 0.09401975
0000f0 a2 d9 83 3e d0 23 4d 3e 8d 7b e1 3d a4 c0 fa 3d
       0.25751978 0.20033193 0.110098936 0.122437745
000100 a8 0a 3b bb 23 60 49 3c 31 dc 2c 3e 49 34 a4 bd
       -0.0028540287 0.012290987 0.16880871 -0.08017785
000110 75 92 8b 3e b9 64 0a 3e 5a d7 93 3e 90 06 ce bd
       0.27260175 0.13514985 0.28875238 -0.100598454
000120 74 4f ce bd 4c 61 8a 3e b2 87 fa 3c 0a e8 01 be
       -0.10073748 0.27027357 0.030582283 -0.12686172
000130 76 4a c6 bd 3e 0f 86 3e e6 e3 88 bc bc c2 84 3e
       -0.09682171 0.26183504 -0.016710233 0.2592982

fc.weight f4 [2, 40]
000000 29 6e 81 3e af 2d 83 be d5 69 f2 bd ce d9 3e 3e
       0.25279358 -0.2562079 -0.11836592 0.18637773
000010 94 52 89 3e 93 70 16 3e 46 b8 5f be c5 9e 86 be
       0.26820815 0.14691381 -0.21847638 -0.26293007
000020 dc 0c 82 bc 47 74 77 3e 09 59 9a 3e 08 77 49 3d
       -0.015875272 0.2416545 0.30146053 0.049185783
000030 eb e8 8a 3e 30 27 79 3e e1 a4 95 3d 7f f2 84 be
       0.27130827 0.24331355 0.07306839 -0.2596626
000040 35 c1 10 3e b7 36 39 be b7 f7 2f 3e bc 4d 52 be
       0.14136203 -0.18087278 0.1718434 -0.20537466
000050 96 35 e7 bd 81 96 0d be 4e 39 e9 3d 38 6f 1d bd
       -0.112895176 -0.13826944 0.11387883 -0.038436145
000060 14 78 30 3e 97 ad 81 3e 53 1f 4c be e1 3f 9d 3d
       0.17233306 0.2532775 -0.19933824 0.076781996
000070 84 43 45 be 4c b2 6f bd 44 bd 71 3e 69 49 4d 3e
       -0.19264036 -0.058519647 0.23607355 0.20047535
000080 29 12 8a 3e a7 64 02 bc b1 c1 63 bd 08 f8 a1 bd
       0.2696698 -0.007958568 -0.05560464 -0.07908636
000090 80 b4 f1 3d c8 39 85 3e b1 72 25 3c 04 44 6a 3d
       0.11802006 0.26020646 0.010098145 0.05719377
0000a0 c0 77 dc bd 87 c2 56 3e 7b fb 68 3e c6 9c 85 be
       -0.10765028 0.20972644 0.22752182 -0.2609617
0000b0 a9 d8 25 be d6 63 7c be 8c 52 55 3e e3 20 5c 3e
       -0.1619593 -0.2464746 0.2083227 0.2149692
0000c0 02 bd 38 3d f3 e2 91 be a6 73 10 be 69 de bd 3d
       0.045102127 -0.2849346 -0.14106616 0.09270937
0000d0 5e c8 65 bd c8 65 19 be 43 10 71 be fe 16 84 3e
       -0.05609929 -0.14980233 -0.2354136 0.25798792
0000e0 0b 74 53 bc f0 81 a3 3e 3b 26 5e be 7c 91 ed 3c
       -0.012906085 0.31935072 -0.21694271 0.029000036
0000f0 fe cb 61 3e bc 30 45 3e b9 5f 13 be 5b 80 95 3d
       0.22050473 0.19256872 -0.14391984 0.072998725
000100 00 c0 e2 bd 01 4b cc bb 91 39 82 3e a3 47 4a 3e
       -0.11071777 -0.006234527 0.25434545 0.1975389
000110 80 3d 79 3e 1b cf 65 3e 00 aa d1 3b 01 c9 83 be
       0.24339867 0.22442286 0.0063984394 -0.2573929
000120 70 00 fd bb f2 81 4c be 46 8c 3c 3e 0f ec cd 3d
       -0.0077209994 -0.19971445 0.18412885 0.1005479
000130 81 98 00 be 4a bb 3e be 0a 43 2c bd b5 da 0b be
       -0.12558176 -0.18626133 -0.04205612 -0.13657649

fc.bias f4 [2]
000000 fa fe 97 3d 2f d2 1f be
       0.0742168 -0.15607522
